MSSN_code/experiment/MSSN_S_x2/model/model_best.pt (torch_old, 362115 bytes, 105 tensors)

head.0.bias f4 [32]
0.013994203 0.16345823 0.0049370443 -0.21854253 -0.023200292 0.26467413 -0.30970836 0.038843248
-0.050335567 0.06332535 0.028725116 0.16300218 -0.46826547 0.05461499 -0.03952434 0.09079135
-0.16510788 -0.05413465 0.065023266 0.3967701 0.42001525 0.04791827 -0.0046437723 0.10911074
-0.25968096 0.12552644 0.051334854 0.08370073 0.093034945 -0.012235424 0.022978473 -0.419804
00000000: f147 653c 9861 273e eec6 a13b 9dc9 5fbe
00000010: 8a0e bebc 5e83 873e 1892 9ebe 191a 1f3d
00000020: ab2c 4ebd b9b0 813d ef50 eb3c 0bea 263e
00000030: 7ec0 efbe f8b3 5f3d 46e4 21bd d1f0 b93d
00000040: 0a12 29be 4bbc 5dbd eb2a 853d 7325 cb3e
00000050: 3d0c d73e f345 443d c92a 98bb 7475 df3d
00000060: e7f4 84be 018a 003e 7f44 523d 4a6b ab3d
00000070: 1b89 be3d 1677 48bc 5a3d bc3c 8df0 d6be

head.0.weight_g f4 [32, 1, 1, 1]
1.7055104 1.0348552 0.27562866 0.7901714 0.31853795 0.5187639 0.7722566 0.8005345
1.1364089 1.5881246 1.4802611 0.49798962 0.4234046 0.768042 1.1977023 1.5456836
0.60923755 1.4747584 0.35679185 0.4367878 0.349301 0.9639326 0.3789077 0.4135429
1.8236048 0.4849271 0.61425203 0.3545182 0.5408317 0.51923865 1.8986056 0.3573431
00000000: 2a4e da3f 2376 843f 331f 8d3e ac48 4a3f
00000010: 6817 a33e b6cd 043f 9cb2 453f d4ef 4c3f
00000020: d975 913f ab47 cb3f 3279 bd3f 7ff8 fe3e
00000030: 7dc8 d83e 679e 443f 4f4e 993f f6d8 c53f
00000040: fef6 1b3f e2c4 bc3f 6cad b63e a7a2 df3e
00000050: 95d7 b23e 49c4 763f 3100 c23e e5bb d33e
00000060: e26b e93f 5d48 f83e 9f3f 1d3f 6983 b53e
00000070: f273 0a3f d3ec 043f 8205 f33f adf5 b63e

head.0.weight_v f4 [32, 3, 3, 3]
0.048248574 0.2513243 0.037639983 0.43352938 -1.1128832 0.45237002 -0.14670864 0.12801506
0.01958115 0.06888482 0.18240967 0.12897357 0.38359994 -1.1228608 0.25526 -0.011982451
0.13009445 -0.017001873 0.13596986 0.05474625 -0.094358966 0.046622384 -0.50270563 0.06761557
-0.027910704 0.29223347 0.11694734 0.2144693 -0.33178812 0.23317586 0.10744887 1.010618
-0.16918664 -0.17880638 -0.659345 -0.21461158 0.12970963 0.0989206 0.1592745 -0.10809452
0.8940298 -0.21992281 0.15571816 -0.2179899 -0.20949866 0.0672173 0.130753 0.06853424
-0.35644022 -0.59559196 -0.41151252 -0.0644124 0.44172794 0.1395072 0.6301106 0.13629952
-0.29152885 -0.06949134 0.6052729 0.20588216 -0.37954924 0.085619695 0.3820102 0.39621902
-0.25214437 -0.020807784 -0.2992403 -0.59046197 -0.12538043 -0.7527843 0.15570217 -0.20892936
0.22968343 0.07183189 -0.017361373 -0.32360664 0.22701168 0.23788469 -0.41862544 0.29158577
-0.22784534 -0.06962249 -0.28347 -0.04775485 0.48946238 -0.48004943 -0.29045603 0.040906917
0.28193766 0.14455573 0.14083618 -0.31296885 0.18603535 0.4779636 -1.0039332 -0.39992407
0.20109138 0.17483741 0.1785156 -0.05370589 0.46988925 0.01966801 0.61780363 0.3210414
-0.6421465 -0.30967674 0.13469985 -0.02619744 0.20686379 -0.12652889 -0.106954135 0.47980097
0.6014192 -0.4225921 -0.035601128 0.01742316 0.38665363 0.40140805 0.092258 -0.3019679
-0.17738755 -0.0046393713 -0.06819385 -0.21994942 0.12738709 -0.07515315 -0.37410206 -0.33093867
-0.015546584 0.11466828 -0.48387548 0.6239311 0.17941831 0.45529568 0.60779464 0.15722829
0.33832273 0.15271974 -0.47865424 -0.90516865 -0.028153718 -0.0114552565 -0.06570384 0.18424872
0.052966755 -0.18184175 -0.056698177 0.36790064 0.4401562 0.29473796 0.058703788 0.23826402
-0.036308184 -0.038491823 -0.5395328 -0.021334417 -0.10089119 -0.5663762 0.71995634 -0.15592763
-0.24396364 0.074947216 0.11657582 0.83390635 0.101068966 0.046053294 -0.16667911 -0.09398533
-0.27334487 -0.55245364 -0.16870616 -0.025809336 0.25655594 -0.10631056 0.30282375 0.94066006
0.0950675 0.0061581107 -0.41320422 0.21976206 -0.123570636 -0.33728692 -0.19288653 0.2919609
-0.5644578 0.3947908 -0.15549064 -0.27713507 0.20765115 -0.07443796 0.20863734 -0.10901796
-0.4975641 -0.11795998 0.61564994 -0.375516 -0.26292968 0.22153923 0.1609001 -0.36225817
-0.11520418 -0.06894425 1.0803847 -0.39611077 0.17044699 -0.43471134 0.008211659 0.036781337
0.3884389 0.046154525 -0.4653765 -0.5476241 -0.37345976 0.28737473 0.64615256 0.30176154
0.030689316 -0.45619756 -0.06674412 0.20878305 -0.3139221 0.56402504 -0.07874372 -0.381992
0.1892243 -0.09752418 -0.3262491 -0.08504061 0.21695355 1.2613657 -0.02759775 -0.29527152
-0.1312153 -0.054987617 -0.10032424 0.23661199 -0.21079509 0.25548354 0.44024074 -0.525191
-0.17519063 -0.07432218 -0.048752826 0.06846289 -0.035858307 0.019021457 0.08051539 -1.0016981
-0.2215797 0.21716292 0.6182995 0.056494568 -0.0825127 -0.15408853 0.013340953 -0.612075
00000000: 4ca0 453d 94ad 803e 622c 1a3d 90f7 dd3e
00000010: f572 8ebf 0b9d e73e ca3a 16be 6116 033e
00000020: a668 a03c 7c13 8d3d 9ac9 3a3e a611 043e
00000030: 3667 c43e e7b9 8fbf 70b1 823e 0b52 44bc
00000040: 7b37 053e 8347 8bbc af3b 0b3e 9b3d 603d
00000050: 463f c1bd 1df7 3e3d 51b1 00bf 087a 8a3d
00000060: fda4 e4bc a09f 953e 1682 ef3d d79d 5b3e
00000070: 22e0 a9be a7c5 6e3e 270e dc3d ee5b 813f
00000080: 433f 2dbe 0519 37be d5ca 28bf 23c3 5bbe
00000090: 9ad2 043e e296 ca3d db18 233e a960 ddbd
000000a0: 23df 643f 7233 61be 9574 1f3e bf38 5fbe
000000b0: d186 56be 39a9 893d 1de4 053e ae5b 8c3d
000000c0: 557f b6be b778 18bf c5b1 d2be a6ea 83bd
000000d0: 2a2a e23e fada 0e3e ee4e 213f 1a92 0b3e
000000e0: 4543 95be 7a51 8ebd 2af3 1a3f c6d2 523e
000000f0: 4754 c2be 6159 af3d d796 c33e 38dd ca3e
00000100: 1119 81be 1675 aabc 0636 99be 8428 17bf
00000110: ba63 00be 79b6 40bf 6470 1f3e 94f1 55be
00000120: 2232 6b3e 991c 933d 7039 8ebc c5af a5be
00000130: c075 683e 0b98 733e 1356 d6be bb4a 953e
00000140: 4a50 69be 3c96 8ebd fb22 91be 979a 43bd
00000150: d09a fa3e 0ac9 f5be a7b6 94be 038e 273d
00000160: 225a 903e 6b06 143e 5c37 103e 743d a0be
00000170: 0d80 3e3e a5b7 f43e e280 80bf d9c2 ccbe
00000180: e6ea 4d3e 9408 333e cbcc 363e b5fa 5bbd
00000190: 5395 f03e ce1e a13c 6128 1e3f 8a5f a43e
000001a0: b763 24bf f38d 9ebe c2ee 093e 049c d6bc
000001b0: 1ad4 533e ca90 01be c50a dbbd 79a8 f53e
000001c0: 9cf6 193f fe5d d8be 7dd2 11bd 04bb 8e3c
000001d0: 77f7 c53e 5b85 cd3e c3f1 bc3d 899b 9abe
000001e0: 15a5 35be de05 98bb 38a9 8bbd 6c3a 61be
000001f0: c371 023e e5e9 99bd 4e8a bfbe cb70 a9be
00000200: 19b7 7ebc 34d7 ea3d 87be f7be f3b9 1f3f
00000210: 6fb9 373e 841c e93e 6e98 1b3f 7400 213e
00000220: a338 ad3e 9062 1c3e 2b12 f5be 22b9 67bf
00000230: a0a2 e6bc d4ae 3bbc bc8f 86bd b2ab 3c3e
00000240: abf3 583d b934 3abe 593c 68bd 795d bc3e
00000250: 275c e13e e5e7 963e 6273 703d 7cfb 733e
00000260: e4b7 14bd 9aa9 1dbd d21e 0abf 84c5 aebc
00000270: 0aa0 cebd 08fe 10bf 0f4f 383f 7eab 1fbe
00000280: 9bd1 79be ed7d 993d 4ebf ee3d e37a 553f
00000290: 3ffd ce3d 61a2 3c3d eead 2abe 617b c0bd
000002a0: dcf3 8bbe 9a6d 0dbf 4fc1 2cbe 1a6e d3bc
000002b0: 4d5b 833e 5ab9 d9bd b70b 9b3e 19cf 703f
000002c0: c0b2 c23d fac9 c93b 818f d3be 4e09 613e
000002d0: 9a12 fdbd dfb0 acbe 0c84 45be e67b 953e
000002e0: 4e80 10bf 0522 ca3e f038 1fbe a6e4 8dbe
000002f0: 81a2 543e ee72 98bd 07a5 553e cf44 dfbd
00000300: b9c0 febe 0195 f1bd 3c9b 1d3f a243 c0be
00000310: b89e 86be 2edb 623e ffc2 243e e779 b9be
00000320: 2bf0 ebbd a532 8dbd 0c4a 8a3f 08cf cabe
00000330: a889 2e3e 7c92 debe 328a 063c 07a8 163d
00000340: 77e1 c63e 870c 3d3d d445 eebe 1831 0cbf
00000350: 1e36 bfbe c822 933e 416a 253f 7d80 9a3e
00000360: 2968 fb3c ba92 e9be 24b1 88bd 39cb 553e
00000370: 66ba a0be f263 103f 6344 a1bd 7594 c3be
00000380: 04c4 413e c2ba c7bd 1f0a a7be c529 aebd
00000390: 1229 5e3e 6e74 a13f ad14 e2bc d42d 97be
000003a0: 4e5d 06be b23a 61bd cc76 cdbd 6a4a 723e
000003b0: abda 57be bdce 823e 3c67 e13e eb72 06bf
000003c0: 2c65 33be 3a36 98bd 0bb1 47bd 4636 8c3d
000003d0: 29e0 12bd e3d2 9b3c 41e5 a43d a537 80bf
000003e0: cae5 62be f55f 5e3e e048 1e3f d966 673d
000003f0: 6bfc a8bd 62c9 1dbe 0394 5a3c f2b0 1cbf

body.0.b0.body.0.body.0.weight_g f4 [64, 1, 1, 1]
0.8376674 0.83593875 0.85202736 0.8792929 0.69164246 1.3104528 0.8317953 1.0644207
1.554987 1.2939092 1.0836889 1.3609297 0.77456486 1.3716536 1.3910816 1.282698
0.9214011 1.0781851 0.7461173 0.80062556 1.2163235 0.96755034 1.3981923 0.5612604
0.82622176 1.1274207 1.078235 0.92534256 0.8483432 1.3688377 1.0831821 0.8053778
1.1174905 0.87703186 1.007723 1.2226062 0.93236053 0.6105509 0.8687895 0.86267906
1.4869373 1.3644681 1.3903731 0.90358824 3.0211372 3.0331569 0.78877664 1.2039849
0.803434 1.2018561 1.2921821 1.2105366 1.1550329 0.83570147 0.9690191 0.8594595
1.5538633 1.2882953 0.89733666 1.0058131 1.0625488 1.140143 1.2824686 0.7121347
00000000: 5f71 563f 1500 563f 771e 5a3f 5719 613f
00000010: 7b0f 313f ebbc a73f 89f0 543f f03e 883f
00000020: d009 c73f d19e a53f 51b6 8a3f f232 ae3f
00000030: e249 463f 5892 af3f f60e b23f 732f a43f
00000040: f1e0 6b3f f801 8a3f 8b01 3f3f ccf5 4c3f
00000050: 7db0 9b3f 61b1 773f f7f7 b23f c3ae 0f3f
00000060: 4583 533f 524f 903f 9b03 8a3f 40e3 6c3f
00000070: 052d 593f 1336 af3f b6a5 8a3f 3d2d 4e3f
00000080: ee09 8f3f 2985 603f 11fd 803f 5c7e 9c3f
00000090: 2eaf 6e3f 104d 1c3f fd68 5e3f 89d8 5c3f
000000a0: f653 be3f e4a6 ae3f bff7 b13f 8f51 673f
000000b0: 505a 4140 3e1f 4240 44ed 493f 2d1c 9a3f
000000c0: daad 4d3f 6cd6 993f 3966 a53f ddf2 9a3f
000000d0: 1ed8 933f 88f0 553f a311 783f 8a05 5c3f
000000e0: fee4 c63f dce6 a43f dbb7 653f 7cbe 803f
000000f0: 9901 883f 35f0 913f ee27 a43f 764e 363f

body.0.b0.body.0.body.0.weight_v f4 [64, 32, 1, 1]
-0.24316484 0.6715276 0.3283701 -0.5765959 0.056429625 1.2625368 -0.14511971 -0.4493843
-0.30126426 0.42898706 -0.10499016 -0.03825073 -0.36068866 0.71070737 -0.010422049 0.26357833
-0.31032756 0.09991617 1.0757052 0.13898608 0.6251841 -0.14985394 -0.7303024 0.5475357
-0.5413224 -0.4339716 -0.15547565 -1.0169268 0.33289266 -0.08685231 -0.3867874 0.6838094
-0.4339324 0.273349 -0.81605786 -0.33214265 -0.40645078 0.2477714 0.12953267 -0.11542167
0.84970313 -0.20384383 0.15817417 0.2803327 -0.243746 1.0610467 0.58324826 -0.38555503
0.57114595 -0.04364669 -0.29768708 -0.2949809 0.10209239 0.51550895 -0.065707944 0.99444056
0.11839983 1.2453002 -0.30057913 0.168575 0.64681035 0.071499385 0.14322346 -0.2722604
-0.4232577 0.167295 -0.74200475 -0.47451627 -0.19913945 0.072935686 0.38600555 0.23065498
0.99323523 -0.057587985 0.9549643 -0.07091535 0.10000839 0.39865765 -0.03444899 -0.5120388
0.44427398 -0.26205358 0.66487294 0.71523005 -0.30055574 -0.3189545 0.04551016 1.0607458
-0.27552584 0.16427064 0.05728801 -0.038934164 0.67015797 0.19319408 0.38087425 -0.3966475
-0.7144836 0.16346148 0.5602931 -0.73250496 0.35772642 0.06336409 0.028954424 1.1046576
-0.2497629 0.4848371 -0.24321319 -0.5458823 0.14258486 -0.2509736 0.8444911 -0.7811427
-0.041913554 0.053645793 0.90168935 0.4352853 0.011816863 0.24446052 0.16802135 -0.09721817
-0.031330172 -1.0301653 0.5905906 0.5197878 -0.24242145 -0.21415594 0.54779774 -0.3689963
0.121211596 -0.13949837 0.30126098 0.9096865 0.30268553 0.22537708 -0.24037868 -0.2534813
-0.13864504 -0.20081176 -0.24968633 -0.005286709 0.09070261 0.22553962 -0.7410181 0.6892968
0.6942062 -0.15796642 -0.18489297 0.24248205 0.33957085 -0.8085002 0.25008842 1.0298996
0.18331945 0.88927054 -0.87910235 -1.1313343 0.834795 0.329638 -0.5430172 0.15416719
0.2762155 -0.07424274 -0.267435 0.19530065 -0.3747164 0.73704773 0.23133111 -0.16696365
0.68957025 -0.05387802 -0.2847243 -0.028338635 -0.43603864 -0.39553654 -1.0031595 -0.7115858
0.077891305 0.01865041 0.47408897 -0.21330358 0.10977928 0.1740252 0.38692778 0.28199077
0.76205766 0.116109386 -0.11826986 1.7536751 0.52106255 -0.69158417 0.011080953 0.23096417
-0.4170864 -0.034466587 0.7142338 0.42688063 -0.33382234 -0.0029128795 -0.26033914 -0.8378345
0.18371281 -0.38467455 0.18325666 0.5523604 -0.12061465 -0.20211472 -0.5882516 -0.6221692
-0.27535585 -0.8405305 -0.04524313 -0.110872164 0.40514556 -0.27049336 -0.7989398 0.36619043
0.12785019 0.10171106 0.26883444 0.73575777 -0.7485833 -0.45787275 -1.2813281 -0.30396166
0.2295798 0.36349916 1.3480477 -0.0048545785 0.23710911 0.015573927 0.37367046 -0.10632946
0.9297219 -0.3126817 0.692305 1.3167232 -0.47330403 0.18000197 0.033145405 0.48802713
-0.045096274 -0.20666029 0.025858698 0.31365445 -0.47395164 0.4145911 -0.37553856 0.2052358
-0.5574711 -0.70544773 -0.5625813 -0.31494844 -0.29989558 -0.17875847 0.04978149 0.2752869
00000000: 3400 79be 3ce9 2b3f 2020 a83e ca9b 13bf
00000010: c022 673d ce9a a13f 439a 14be b315 e6be
00000020: 4f3f 9abe 31a4 db3e 1505 d7bd ccac 1cbd
00000030: 2fac b8be ebf0 353f 3ec1 2abc bdf3 863e
00000040: 41e3 9ebe d9a0 cc3d b5b0 893f 5e52 0e3e
00000050: 110c 203f 5073 19be 19f5 3abf 4d2b 0c3f
00000060: 1b94 0abf 8731 debe 0235 1fbe a82a 82bf
00000070: e870 aa3e a0df b1bd 0009 c6be 220e 2f3f
00000080: 632c debe 66f4 8b3e 2be9 50bf 9a0e aabe
00000090: 511a d0be c9b7 7d3e 36a4 043e 3262 ecbd
000000a0: 2586 593f 70bc 50be 69f8 213e c587 8f3e
000000b0: 8d98 79be 61d0 873f c24f 153f 7867 c5be
000000c0: 9f36 123f dfc6 32bd 716a 98be bd07 97be
000000d0: d115 d13d 65f8 033f e391 86bd a893 7e3f
000000e0: 9c7b f23d ff65 9f3f 82e5 99be ed9e 2c3e
000000f0: 5d95 253f 456e 923d 2ca9 123e b765 8bbe
00000100: 3cb5 d8be 614f 2b3e 06f4 3dbf ccf3 f2be
00000110: 36eb 4bbe 4e5f 953d 85a2 c53e d230 6c3e
00000120: aa44 7e3f 61e1 6bbd 8a78 743f 113c 91bd
00000130: 33d1 cc3d db1c cc3e 621a 0dbd fa14 03bf
00000140: e177 e33e e32b 86be 1d35 2a3f 5119 373f
00000150: 71e2 99be 014e a3be dd68 3a3d 85c6 873f
00000160: b911 8dbe 9036 283e d5a6 6a3d 6e79 1fbd
00000170: 798f 2b3f abd4 453e f301 c33e 6215 cbbe
00000180: 66e8 36bf 7262 273e 5e6f 0f3f 7285 3bbf
00000190: eb27 b73e 08c5 813d d431 ed3c 6c65 8d3f
000001a0: d8c1 7fbe 923c f83e e10c 79be f1be 0bbf
000001b0: c401 123e 9d7f 80be 9230 583f f8f8 47bf
000001c0: 8cad 2bbd b1bb 5b3d 1dd5 663f b7dd de3e
000001d0: 849b 413c dc53 7a3e ca0d 2c3e 521a c7bd
000001e0: 1154 00bd 75dc 83bf f230 173f d010 053f
000001f0: 543d 78be b24b 5bbe 793c 0c3f 15ed bcbe
00000200: c93d f83d a9d8 0ebe e13e 9a3e 37e1 683f
00000210: 99f9 9a3e 40c9 663e d425 76be 4dc8 81be
00000220: f7f8 0dbe 99a1 4dbe c6ad 7fbe 213c adbb
00000230: 4ac2 b93d dcf3 663e 5db3 3dbf c175 303f
00000240: 7fb7 313f f3c1 21be 9554 3dbe 374d 783e
00000250: 3bdc ad3e def9 4ebf 970b 803e c0d3 833f
00000260: 18b8 3b3e 3ca7 633f da0c 61bf 90cf 90bf
00000270: 20b5 553f 50c6 a83e 2d03 0bbf 01de 1d3e
00000280: 1e6c 8d3e 940c 98bd 3eed 88be e5fc 473e
00000290: d4da bfbe 29af 3c3f 10e2 6c3e 85f8 2abe
000002a0: ad87 303f 33af 5cbd 62c7 91be 6d26 e8bc
000002b0: 7540 dfbe c483 cabe 8867 80bf 7d2a 36bf
000002c0: 7a85 9f3d bfc8 983c cabb f23e 416c 5abe
000002d0: f6d3 e03d a933 323e 661b c63e 1861 903e
000002e0: 3616 433f c2ca ed3d 7837 f2bd 6d78 e03f
000002f0: 5b64 053f a90b 31bf e38c 353c df81 6c3e
00000300: 598c d5be d62c 0dbd 07d8 363f 1990 da3e
00000310: c3ea aabe 02e6 3ebb 2c4b 85be 527c 56bf
00000320: 361f 3c3e 10f4 c4be a2a7 3b3e 7e67 0d3f
00000330: d004 f7bd 29f7 4ebe a897 16bf 7b46 1fbf
00000340: 71fb 8cbe 022d 57bf dc50 39bd f210 e3bd
00000350: 3d6f cf3e 1b7e 8abe 5287 4cbf 507d bb3e
00000360: 29eb 023e e34d d03d aba4 893e 9f5a 3c3f
00000370: 28a3 3fbf 4c6e eabe 8f02 a4bf dda0 9bbe
00000380: f816 6b3e 901c ba3e d48c ac3f 2813 9fbb
00000390: bbcc 723e c929 7f3c bc51 bf3e 43c3 d9bd
000003a0: 4102 6e3f d117 a0be e73a 313f 638a a83f
000003b0: e854 f2be 7052 383e 7ac3 073d b1de f93e
000003c0: dfb6 38bd c19e 53be 9fd5 d33c 5197 a03e
000003d0: caa9 f2be 4945 d43e 9746 c0be 5529 523e
000003e0: 6db6 0ebf 3998 34bf 5405 10bf ec40 a1be
000003f0: ea8b 99be 760c 37be ade7 4b3d 68f2 8c3e

body.0.b0.body.0.body.2.weight_g f4 [64, 1, 1, 1]
0.84813017 0.9047058 0.8379176 0.76668113 0.6151411 1.4204082 0.7807175 1.0370958
1.3978274 1.2694534 1.1348296 1.2753223 1.0443739 1.2452434 1.3606832 1.3226438
0.8234427 1.2299651 0.66249883 0.778091 1.3053644 0.8814215 1.3115487 0.50487214
0.96254194 1.054587 1.1489801 0.9229989 0.9612748 1.4246365 1.0819637 0.73489434
1.1337212 0.97069603 0.8291626 1.1243246 0.84711426 0.62305987 0.81960094 0.82316047
1.3745341 1.2730445 1.4418248 0.87037295 2.8767593 3.1100738 0.9121181 1.1855062
0.91991806 1.2229614 1.3549808 1.1431537 1.0213637 0.9310977 1.0150932 0.69206154
1.4537889 1.3421173 0.9428778 0.9768405 1.1332152 1.1397523 1.233306 0.72052956
00000000: 0f1f 593f cd9a 673f c581 563f 3745 443f
00000010: e379 1d3f f0cf b53f 1add 473f 8ebf 843f
00000020: 02ec b23f 737d a23f 1942 913f c33d a33f
00000030: 0bae 853f 2364 9f3f de2a ae3f 644c a93f
00000040: 24cd 523f 7f6f 9d3f 8699 293f f930 473f
00000050: 2e16 a73f d7a4 613f d4e0 a73f 4d3f 013f
00000060: 2669 763f b5fc 863f c811 933f a849 6c3f
00000070: 1b16 763f 7d5a b63f c97d 8a3f 0922 3c3f
00000080: c71d 913f 897f 783f 0044 543f dee9 8f3f
00000090: 7bdc 583f da80 1f3f 5ed1 513f a5ba 523f
000000a0: bcf0 af3f 1ff3 a23f b78d b83f c3d0 5e3f
000000b0: d31c 3840 730b 4740 9280 693f abbe 973f
000000c0: c07f 6b3f 008a 9c3f 0370 ad3f dc52 923f
000000d0: 0cbc 823f 6b5c 6e3f 93ee 813f f22a 313f
000000e0: c115 ba3f 80ca ab3f 7160 713f 3812 7a3f
000000f0: 320d 913f 67e3 913f f9dc 9d3f a074 383f

body.0.b0.body.0.body.2.weight_v f4 [64, 1, 3, 3]
-0.22622979 -0.93908113 -0.54450196 0.3313211 -0.07054966 0.3414514 -0.09388963 0.6546008
0.31230453 -0.10938287 0.24013524 -0.11773881 -0.04037046 -0.9568919 0.006570763 0.18759611
0.87923855 -0.04050225 -0.1061135 -0.6321886 0.7699565 0.6122794 -0.55805373 -0.023711177
-0.06437516 0.018298438 0.05430298 -0.012750594 0.28401712 0.14430338 -0.8087268 0.57600486
0.43890578 -0.62304646 -0.2567456 0.14054036 -0.08644885 0.0927601 0.15050913 -0.41412288
-0.87137395 0.6226514 -0.39192522 0.14553355 0.3259011 0.23898454 -0.5644246 -0.5841232
0.5702224 0.32699552 -0.5168402 -0.18909898 0.59808767 0.1730281 -0.047276832 -0.26975194
-0.12613994 -0.17216578 2.0486887 -0.19263 -0.061830066 -0.08167996 -0.025440764 -0.046666723
0.3904333 1.1337365 -0.009010947 -0.03665669 -0.8288909 -0.021544412 -0.11204349 0.0074579613
0.055269837 -0.5423828 -0.10836724 0.45150083 0.092683025 -0.683483 -0.0059240567 0.71530306
0.02744617 -0.11044787 -0.16691265 -0.066084 -0.15924014 -0.7369507 0.04546439 0.1476704
1.2313333 -0.006061499 0.20555007 -0.5547775 -0.1584095 -0.65331286 -0.1294209 0.47373942
-0.18186808 0.5580054 0.3658631 0.08188771 -0.05689295 0.1996535 -0.3803046 2.7141862
0.1060504 0.076163396 -0.2685579 0.020868944 -0.11998938 0.015319991 -0.10185406 0.73596436
1.5771258 0.62802833 -0.10751506 0.054891717 -0.119496725 -0.07705162 0.10675086 0.15735826
-0.25349152 1.7090069 -0.056695677 -0.19871697 -0.22962824 -0.20905852 -0.04760859 0.075097024
0.057565805 -0.1986802 -0.84928834 1.1416466 -0.11365599 -0.08205053 0.18945187 0.3499747
-0.89245826 0.52947444 -0.6861459 0.17561875 0.2927129 0.44831136 0.27839637 0.18287641
-0.09989108 0.08543272 -0.005149204 -0.176786 2.0634687 0.57179606 -0.16234976 0.3211096
-0.16450447 -0.053665485 -0.01789937 -0.120775335 0.12161406 -0.9495815 -0.017761743 0.055069882
0.9930957 0.20527814 0.069834836 0.2582597 0.7360686 1.0029305 -0.26386985 0.13204707
0.16237687 0.46010363 0.26510954 0.5404416 0.23306885 0.2530966 0.2830206 -0.83052284
0.5505182 0.2767719 0.16660531 -0.021474583 0.1392615 -0.20097691 0.07458318 0.11915879
-0.05736843 0.043408636 0.4504482 -1.0436692 0.4694241 1.5046571 0.5780047 0.03228489
0.51337326 -0.2540455 0.15931979 -0.037133005 0.12702754 -0.21541327 0.41168702 0.24179515
-0.4288043 0.24234864 -0.728439 -0.1294499 -0.3283654 -0.22260758 0.5787879 0.3310518
-0.031698924 0.7876074 0.24030812 0.5266579 0.8467255 0.5670429 0.3527464 0.35998318
0.11127274 0.30264875 0.5419538 0.6427738 0.8719076 0.27862766 0.45061943 0.4409639
0.09447938 -0.30018058 -0.05925415 -0.06128994 0.14764872 0.34930268 -0.23759723 0.353729
-0.860702 0.64824355 0.36836925 0.5308367 -0.6000489 0.50470483 -0.31159425 -0.50798655
0.1328477 -0.41015983 0.117743164 0.02798813 0.08809164 0.12038827 -0.047845818 0.109728046
3.8670526 -0.046519384 0.1242377 -0.3676885 -0.24308218 0.5373281 -0.19053888 0.48040023
00000000: c8a8 67be 9f67 70bf 7b64 0bbf eba2 a93e
00000010: 577c 90bd b8d2 ae3e 3549 c0bd eb93 273f
00000020: 61e6 9f3e 2004 e0bd 03e6 753e 0c21 f1bd
00000030: 7f5b 25bd def6 74bf 8e4f d73b 3219 403e
00000040: c715 613f b0e5 25bd 0952 d9bd 1dd7 21bf
00000050: df1b 453f 58be 1c3f 9cdc 0ebf f13d c2bc
00000060: 20d7 83bd 9be6 953c cd6c 5e3d dee7 50bc
00000070: b16a 913e 44c4 133e b808 4fbf 0e75 133f
00000080: 42b8 e03e f97f 1fbf 2974 83be d0e9 0f3e
00000090: 180c b1bd 02f9 bd3d 111f 1a3e ea07 d4be
000000a0: 5d12 5fbf 1566 1f3f 6caa c8be bf06 153e
000000b0: 82dc a63e 5db8 743e 217e 10bf 1989 15bf
000000c0: 18fa 113f f56b a73e a44f 04bf 2aa3 41be
000000d0: 461c 193f 472e 313e 5aa5 41bd ed1c 8abe
000000e0: d42a 01be 3a4c 30be b71d 0340 cc40 45be
000000f0: 8641 7dbd d347 a7bd 2669 d0bc 9b25 3fbd
00000100: e0e6 c73e 471e 913f a7a2 13bc 5325 16bd
00000110: 3232 54bf e87d b0bc 0f77 e5bd ea61 f43b
00000120: a062 623d 99d9 0abf a5ef ddbd 1e2b e73e
00000130: 99d0 bd3d bef8 2ebf 971e c2bb 1a1e 373f
00000140: cad6 e03c 7e32 e2bd 26eb 2abe 0c57 87bd
00000150: d90f 23be cda8 3cbf de38 3a3d e936 173e
00000160: 549c 9d3f 8a9f c6bb b87b 523e e605 0ebf
00000170: 1a36 22be 833f 27bf ea86 04be f98d f23e
00000180: a03b 3abe 71d9 0e3f 6952 bb3e beb4 a73d
00000190: 9508 69bd f871 4c3e 49b7 c2be 3ab5 2d40
000001a0: f430 d93d 8efb 9b3d 6c80 89be 59f5 aa3c
000001b0: febc f5bd b300 7b3c dd98 d0bd 2968 3c3f
000001c0: 42df c93f 77c6 203f db30 dcbd 23d6 603d
000001d0: b3ba f4bd 3dcd 9dbd 32a0 da3d 8622 213e
000001e0: a4c9 81be bdc0 da3f ba39 68bd 767c 4bbe
000001f0: aa23 6bbe 7013 56be 3a01 43bd 78cc 993d
00000200: 1fca 6b3d d372 4bbe f66a 59bf 7a21 923f
00000210: 79c4 e8bd 1c0a a8bd acff 413e e22f b33e
00000220: 2578 64bf a38b 073f 42a7 2fbf 67d5 333e
00000230: 77de 953e 1189 e53e f889 8e3e f443 3b3e
00000240: b293 ccbd 5af7 ae3d a7ba a8bb 6407 35be
00000250: df0f 0440 3a61 123f 043f 26be 7a68 a43e
00000260: dc73 28be 57d0 5bbd b3a1 92bc 0f59 f7bd
00000270: cb10 f93d c617 73bf 1381 91bc f590 613d
00000280: 853b 7e3f 6f34 523e 9105 8f3d 9e3a 843e
00000290: fe6e 3c3f 0760 803f f319 87be 5937 073e
000002a0: 1f46 263e b492 eb3e 70bc 873e 615a 0a3f
000002b0: 9aa9 6e3e e195 813e 13e8 903e 259d 54bf
000002c0: c3ee 0c3f 0cb5 8d3e 959a 2a3e 77eb afbc
000002d0: 919a 0e3e e4cc 4dbe 11bf 983d 8609 f43d
000002e0: 29fb 6abd 41cd 313d 25a1 e63e f496 85bf
000002f0: 5b58 f03e 9b98 c03f 1ef8 133f 293d 043d
00000300: 6e6c 033f 4012 82be ba24 233e c718 18bd
00000310: 8213 023e 4c95 5cbe a4c8 d23e 2699 773e
00000320: 3d8c dbbe 3e2a 783e fa7a 3abf 848e 04be
00000330: 821f a8be 3ef3 63be 722b 143f 9f7f a93e
00000340: bbd6 01bd a3a0 493f 5513 763e 0dd3 063f
00000350: 01c3 583f b929 113f 2d9b b43e b74f b83e
00000360: f6e2 e33d c7f4 9a3e 7cbd 0a3f d38c 243f
00000370: 5635 5f3f 49a8 8e3e 97b7 e63e 05c6 e13e
00000380: 687e c13d 45b1 99be 7bb4 72bd 290b 7bbd
00000390: 3a31 173e cdd7 b23e b04c 73be f81b b53e
000003a0: f756 5cbf 4af3 253f e59a bc3e eae4 073f
000003b0: ce9c 19bf 5634 013f 4889 9fbe 680b 02bf
000003c0: 3a09 083e 7800 d2be 5423 f13d 5d47 e53c
000003d0: 6469 b43d 208e f63d faf9 43bd 19b9 e03d
000003e0: ca7d 7740 1c8b 3ebd 5670 fe3d ab41 bcbe
000003f0: 89ea 78be 568e 093f a01c 43be 05f7 f53e

body.0.b0.body.0.body.4.weight_g f4 [32, 1, 1, 1]
0.8651151 0.9890886 0.8632564 0.8962639 0.9459089 1.0321352 0.89887404 0.88450223
0.79162836 0.9842924 0.6691972 1.0379034 0.7047344 0.72190326 0.8383788 1.1534858
0.74500114 0.8117347 0.7974761 0.59340763 0.6989787 1.1880577 0.8013571 1.0447371
1.0043976 0.885355 1.3092992 0.808998 0.81631124 1.1251523 1.2073363 0.4352697
00000000: 2f78 5d3f e934 7d3f 5ffe 5c3f 8d71 653f
00000010: 1627 723f 021d 843f 9c1c 663f bd6e 623f
00000020: 28a8 4a3f 96fa 7b3f 8250 2b3f 05da 843f
00000030: 7969 343f a7ce 383f fe9f 563f 6ca5 933f
00000040: 65b8 3e3f d8cd 4f3f 6527 4c3f 90e9 173f
00000050: 45f0 323f 4612 983f bd25 4d3f f2b9 853f
00000060: 1a90 803f a0a6 623f 1e97 a73f 7e1a 4f3f
00000070: c6f9 503f fe04 903f ff89 9a3f acdb de3e

body.0.b0.body.0.body.4.weight_v f4 [32, 64, 1, 1]
-0.3859061 -0.0018849802 0.085702375 -0.61757046 0.57749885 -0.28948656 0.6443106 0.15517966
-0.4128318 -0.6093693 0.1752217 -0.47542354 0.29557014 0.11365688 -0.27665693 -0.8012123
0.15086703 0.1518698 -0.048581056 -0.5431028 -0.6512204 -0.1824384 -0.00513627 -0.10640981
-0.60862315 -0.11391996 -0.0015974555 0.2873967 -0.6593957 0.23054545 0.25267103 1.1747785
0.6800927 -0.19836755 0.37825233 0.3618944 -0.18189403 0.032024626 -1.2109597 -0.5348997
0.60095567 -0.30814403 -0.32652506 -0.49306163 0.4181169 8.072028e-05 -0.78680736 -0.006908716
-0.001526141 -0.68420357 -0.22686584 0.12536357 0.30038625 -0.6001112 0.09426812 -0.2758592
-0.3572252 0.021158561 -0.12454723 -0.17081124 -0.26353246 -0.13761126 -0.43228278 -0.43741018
-0.21149422 -0.40618443 0.38347957 -0.045171972 -0.5978315 0.6080904 -0.60371405 -0.101569965
0.3427405 0.3992633 -0.49470854 0.38356343 -0.2410042 -0.4112834 1.0590744 0.058339465
-0.8142314 -1.4120595 -0.05700664 0.38021442 -0.103899896 -0.04767083 0.08850036 0.062113713
-0.14880829 0.44232756 -0.3134881 -0.0726344 0.2120885 0.3789225 -0.8984802 0.10705524
0.056555796 -0.2720045 0.091920435 0.31217685 0.27975047 -0.14272279 0.0029821736 -0.42799002
0.21572243 0.11908494 0.28503907 0.28879216 1.0996338 -0.51137 0.14335069 -0.6174526
-0.34830076 0.38208213 0.16141197 -0.4993353 0.3765875 -0.09597999 -1.780902 0.08221264
0.05507414 -0.33869767 -0.1780442 -0.48406637 0.019582588 -0.93948454 0.05684504 0.37256712
0.0048942654 0.25904596 0.3924449 0.38143104 -0.31145486 0.013530971 0.32446545 0.26799655
0.41914043 -0.3031477 -0.20526011 -0.11610474 -0.64709425 0.21399294 -0.26013973 0.018508004
-0.47992516 0.0400986 0.3506568 -0.4226021 0.43035686 -0.0050565796 -0.4367078 0.16694559
-0.5906069 0.744315 -0.39744064 -0.027877327 0.45626822 -0.3829929 0.420248 -0.29158455
-0.21275836 -0.6226802 0.87648207 -0.57314575 -0.6998001 0.0010998689 0.04876839 -0.5990389
0.17668451 -0.627313 -0.33816084 0.7396218 -0.15420936 0.03607701 0.2993392 -0.055843804
-0.43601224 0.36665937 -0.6230939 -0.19972286 -0.15118143 0.85377353 0.13267684 0.6088983
0.25146857 -0.44097885 -0.015380158 -0.5614072 0.8990508 -0.054349605 -0.08905064 0.6707815
-0.1279241 0.16350763 0.65209746 0.26113355 0.11893865 0.7292269 0.14468549 -0.1759224
0.72757226 -0.31633475 -0.70407856 -0.12296118 0.3889095 0.4222606 0.4825813 -0.31227356
0.56705457 0.43975365 -0.46543628 -0.122355185 -0.15009432 -0.19432554 -0.7589438 -1.0751725
-0.8531899 0.47762153 -0.562532 -0.248231 -0.3335808 -0.38967296 -0.019724438 -0.42459488
-0.12742881 -0.5786567 -0.08500359 -0.3882215 0.29472136 -0.24708754 0.3422318 0.35572577
-0.17932786 -0.15379795 0.13978605 0.09538628 -0.075165115 -0.18386449 -0.10165729 -0.013608993
0.40023887 0.36153555 0.09685643 0.10136073 -0.07226717 0.065652855 0.4851266 -0.05704249
0.18977523 -0.8332061 0.17091645 -0.9039243 1.062441 0.019507578 0.0056178626 0.5964593
00000000: 7c95 c5be 7111 f7ba ba84 af3d 1919 1ebf
00000010: f7d6 133f 9537 94be 8af1 243f 6be7 1e3e
00000020: b15e d3be a0ff 1bbf 516d 333e b76a f3be
00000030: f854 973e f0c4 e83d faa5 8dbe 401c 4dbf
00000040: e37c 1a3e c283 1b3e eefc 46bd c908 0bbf
00000050: 61b6 26bf 22d1 3abe 284e a8bb 63ed d9bd
00000060: bace 1bbf de4e e9bd b661 d1ba a925 933e
00000070: 28ce 28bf 1b14 6c3e 195e 813e 245f 963f
00000080: 8e1a 2e3f dd20 4bbe 4aaa c13e 394a b93e
00000090: 6e42 3abe 412c 033d ba00 9bbf 30ef 08bf
000000a0: 3bd8 193f 0ec5 9dbe 4b2e a7be 9372 fcbe
000000b0: 6b13 d63e 5f48 a938 356c 49bf 8362 e2bb
000000c0: cb08 c8ba f727 2fbf 854f 68be 4f5f 003e
000000d0: 3acc 993e e3a0 19bf a50f c13d 6b3d 8dbe
000000e0: 39e6 b6be b854 ad3c 9e12 ffbd 24e9 2ebe
000000f0: baed 86be f7e9 0cbe 2b54 ddbe 3af4 dfbe
00000100: f191 58be 68f7 cfbe 6f57 c43e 3f06 39bd
00000110: 7c0b 19bf d0ab 1b3f 018d 1abf ea03 d0bd
00000120: af7b af3e 3d6c cc3e 704a fdbe 6d62 c43e
00000130: cec9 76be bd93 d2be c08f 873f 5df5 6e3d
00000140: 7871 50bf 5ebe b4bf cb7f 69bd 77ab c23e
00000150: 78c9 d4bd 7d42 43bd ad3f b53d f36a 7e3d
00000160: 3361 18be c278 e23e 8381 a0be 58c1 94bd
00000170: ba2d 593e 2102 c23e cc02 66bf c73f db3d
00000180: 0da7 673d 2c44 8bbe c840 bc3d a5d5 9f3e
00000190: 743b 8f3e ec25 12be 9270 433b 8221 dbbe
000001a0: 57e6 5c3e cee2 f33d a4f0 913e 91dc 933e
000001b0: cdc0 8c3f 25e9 02bf 86ca 123e 6011 1ebf
000001c0: 7a54 b2be 45a0 c33e 2e49 253e e0a8 ffbe
000001d0: 14d0 c03e 2891 c4bd 99f4 e3bf 1a5f a83d
000001e0: 6c95 613d c869 adbe 3851 36be 8cd7 f7be
000001f0: aa6b a03c 0f82 70bf 58d6 683d 1ec1 be3e
00000200: 1360 a03b aca1 843e 8aee c83e ee4a c33e
00000210: 0377 9fbe 01b1 5d3c 5620 a63e d836 893e
00000220: 9399 d63e 2d36 9bbe b52f 52be 52c8 edbd
00000230: f8a7 25bf f720 5b3e 0931 85be 199e 973c
00000240: c0b8 f5be 6e3e 243d 4a89 b33e 4d5f d8be
00000250: bc57 dc3e aab1 a5bb 2a98 dfbe c9f3 2a3e
00000260: 0432 17bf 6e8b 3e3f 577d cbbe fe5e e4bc
00000270: fd9b e93e a517 c4be bf2a d73e 924a 95be
00000280: 54dd 59be f867 1fbf 2161 603f aeb9 12bf
00000290: 1926 33bf 7a29 903a 5dc1 473d 9d5a 19bf
000002a0: c9ec 343e 9697 20bf 6b23 adbe db57 3d3f
000002b0: 0fe9 1dbe 7dc5 133d fd42 993e 79bc 64bd
000002c0: ff3c dfbe c7ba bb3e 1583 1fbf 2684 4cbe
000002d0: 4ecf 1abe e790 5a3f 70dc 073e c2e0 1b3f
000002e0: 7dc0 803e fbc7 e1be 0ffd 7bbc 62b8 0fbf
000002f0: 3128 663f b19d 5ebd 2f60 b6bd 56b8 2b3f
00000300: 89fe 02be 8b6e 273e dcef 263f 4cb3 853e
00000310: 1b96 f33d 9dae 3a3f 6f28 143e 0025 34be
00000320: 2d42 3a3f a1f6 a1be 7e3e 34bf 12d3 fbbd
00000330: 251f c73e 8b32 d83e e514 f73e 52e2 9fbe
00000340: 7d2a 113f 6427 e13e aa4d eebe 5b95 fabd
00000350: 53b2 19be 46fd 46be 244a 42bf 419f 89bf
00000360: a76a 5abf cf8a f43e 1902 10bf 4430 7ebe
00000370: 1acb aabe 3783 c7be 2595 a1bc 8064 d9be
00000380: b37c 02be d822 14bf 5d16 aebd f8c4 c6be
00000390: b8e5 963e 8404 7dbe 0239 af3e b021 b63e
000003a0: b9a1 37be 367d 1dbe 1324 0f3e e259 c33d
000003b0: 2bf0 99bd f946 3cbe b231 d0bd 41f8 5ebc
000003c0: 1cec cc3e 301b b93e aa5c c63d 3796 cf3d
000003d0: cf00 94bd 0175 863d 8462 f83e 63a5 69bd
000003e0: 7054 423e ff4c 55bf b904 2f3e 9567 67bf
000003f0: 11fe 873f 5bce 9f3c 0c16 b83b 8fb1 183f

body.0.b0.body.1.body.0.weight_g f4 [64, 1, 1, 1]
0.92324704 1.2940618 0.9643014 1.1488807 1.6455855 0.9136675 1.0273129 0.9694909
1.391619 0.8700834 1.024595 0.86211675 0.72461 0.7202441 0.6794879 1.0690519
0.8797105 0.9224785 0.93551713 1.1550968 1.3023593 1.5972027 0.86489975 1.0232447
0.695498 0.9553841 0.94432855 0.79758245 0.7575358 0.98247707 0.7777346 1.295449
1.0412096 0.8974184 1.1531608 0.8911861 0.70675486 1.2403764 1.1132481 1.2837436
2.696559 0.8850951 1.0923793 1.0307087 0.9412786 1.2142222 0.9089166 1.0083314
0.72078675 0.6818041 1.1066118 1.2261454 1.0921277 1.0912766 1.7051965 1.0941387
1.2094083 0.9293824 1.7521068 1.1202642 0.9558522 1.3753405 0.91296816 0.939828
00000000: eb59 6c3f d1a3 a53f 75dc 763f 860e 933f
00000010: 8ca2 d23f 1de6 693f fd7e 833f 8e30 783f
00000020: 9220 b23f c9bd 5e3f ee25 833f afb3 5c3f
00000030: 0a80 393f eb61 383f ebf2 2d3f b1d6 883f
00000040: b534 613f 8d27 6c3f 0d7e 6f3f 36da 933f
00000050: b6b3 a63f 2371 cc3f 126a 5d3f aff9 823f
00000060: 280c 323f 0d94 743f 84bf 713f 5d2e 4c3f
00000070: deed 413f 9e83 7b3f 9d19 473f 46d1 a53f
00000080: 5b46 853f 36bd 653f c69a 933f c624 643f
00000090: e3ed 343f a7c4 9e3f ea7e 8e3f b651 a43f
000000a0: 6c94 2c40 9895 623f 16d3 8b3f 43ee 833f
000000b0: a2f7 703f a26b 9b3f c2ae 683f 0111 813f
000000c0: 7b85 383f b78a 2e3f 75a5 8d3f 55f2 9c3f
000000d0: d7ca 8b3f f4ae 8b3f e143 da3f bd0c 8c3f
000000e0: e4cd 9a3f 01ec 6d3f 0945 e03f d164 8f3f
000000f0: bbb2 743f 280b b03f 48b8 693f 9198 703f

body.0.b0.body.1.body.0.weight_v f4 [64, 32, 1, 1]
0.062791444 0.21028474 -0.35728827 0.08658341 1.026688 0.028492423 0.4179957 -0.51005954
0.6068459 0.38719812 -0.1632547 0.014947899 -0.0733448 -0.51335734 -0.1649737 -0.11773014
-0.16075611 0.68230027 -0.7035775 -0.24468848 -0.39728436 0.15369004 -0.4973694 0.23261087
0.24977717 -1.0003958 0.5510066 0.6053589 0.47967786 1.1068344 -0.18927075 -0.078386046
-0.63141596 0.5933272 -0.39769298 -0.21360624 1.5236813 -0.0994532 0.24380453 -0.41131067
-0.12170836 0.050528545 0.45287445 0.58118635 0.06645201 -0.36175978 0.5243992 -0.29802823
1.1058816 0.43028867 -0.08933977 -0.7178725 -0.23584521 0.33050835 0.12918727 -0.1974344
0.30203947 -0.60139704 0.3874839 0.25471345 -0.035737194 -0.33110103 0.16006434 -0.4470136
-0.62745684 -0.545228 -0.19789562 0.38916728 -0.1708911 0.31713104 -0.73706615 0.25655243
0.717315 0.078504406 -0.15654653 -0.047755085 -0.5548987 0.91637915 0.08971599 0.16374223
-0.1534982 0.3646327 -0.49336332 -0.62631917 -0.3230401 0.68047893 -0.14495356 -0.0015155432
-0.6387208 0.41381434 0.15598178 0.17305627 1.066444 -0.18453708 -0.05052262 0.24859408
0.27455974 -0.047213268 0.4698354 0.06020236 0.56650937 -0.3490501 0.6227133 -0.3823353
0.6496954 -0.10999836 -0.22929992 0.17161942 -0.4847175 0.41190562 0.04779891 1.0741618
-0.10416285 -0.466481 -0.080929354 0.53607017 0.043651428 0.07871165 -0.27536765 -0.17292175
-0.2205827 -0.9714649 -0.59345686 0.5284472 -0.6959037 -0.43924478 0.26698366 0.12068172
-0.15927064 0.3044211 0.3280029 -0.13579287 -0.30183226 -0.45153323 0.55869514 0.3850574
-0.05320673 -0.18896392 0.17968494 -0.21514073 0.16745205 0.019885859 0.41890016 -0.16181464
0.06368589 0.20435779 -0.30068234 -2.2344418 -1.6716489 -0.08936469 0.46888605 -0.1232267
0.22399102 -0.053513654 0.02821817 -0.6010757 -0.14629197 -0.24700761 0.11831206 -0.44343475
-0.46211958 0.32407865 -0.20965365 -0.46077642 0.07662682 -0.2546568 -0.38691527 0.27773303
0.47672218 0.42056698 -0.6313297 -0.60139066 -0.75580144 -0.15425426 -0.0074201734 -0.4523274
0.8834927 -0.46693918 -0.066517465 -0.18580668 0.5529364 -0.5570022 -0.90252846 -0.23765856
-0.28265238 -0.8245948 -0.16915776 -0.083964735 0.26875126 0.13145351 -0.39779118 -0.61111945
-0.31861556 0.43121096 -0.28049076 -0.86754596 0.21820918 0.77471226 0.3490917 -0.31209958
0.4114561 0.5681237 0.2624573 -0.0683639 -0.40486646 -0.029775131 0.3991411 0.49431652
-0.20472653 0.505739 0.22610407 -0.5974322 0.5277781 0.24794751 -0.40540025 -0.26347914
-0.35169697 -0.6740525 0.14957936 -0.049157247 0.8520704 0.47829682 0.20734285 -0.36664745
0.52358377 0.28453878 -0.32471886 0.25696492 0.39325538 -0.19187011 -0.38295287 -0.66069174
-0.12169652 -0.5247233 0.7233745 0.6171221 0.08954455 0.077326044 -0.484585 0.4314798
-0.12907773 0.26593283 -0.36238822 0.2667664 0.4247768 0.12686864 0.29783157 0.36352846
0.16971782 1.0895418 -0.95955884 -0.90281093 0.66835874 0.1859722 0.6692645 -0.055855982
00000000: cd98 803d e254 573e 7dee b6be a552 b13d
00000010: 836a 833f f168 e93c 8803 d63e 4393 02bf
00000020: 415a 1b3f d53e c63e 3d2c 27be 08e8 743c
00000030: cc35 96bd 636b 03bf deee 28be 801c f1bd
00000040: 409d 24be 3bab 2e3f a81d 34bf 9e8f 7abe
00000050: db68 cbbe ec60 1d3e 34a7 febe 8b31 6e3e
00000060: 96c5 7f3e f80c 80bf c50e 0d3f cdf8 1a3f
00000070: 5698 f53e c0ac 8d3f 31d0 41be dd88 a0bd
00000080: 7aa4 21bf 4be4 173f 6a9e cbbe 98bb 5abe
00000090: fd07 c33f 1fae cbbd e5a7 793e 5097 d2be
000000a0: 3c42 f9bd 05f7 4e3d 29df e73e a1c8 143f
000000b0: fe17 883d 9438 b9be 073f 063f 2897 98be
000000c0: 878d 8d3f cc4e dc3e c5f7 b6bd 7ec6 37bf
000000d0: 6881 71be 6438 a93e ab49 043e 3e2c 4abe
000000e0: eba4 9a3e 28f5 19bf 4a64 c63e cd69 823e
000000f0: 2a61 12bd 1386 a9be e8e7 233e f7de e4be
00000100: 03a1 20bf 1094 0bbf 26a5 4abe ef40 c73e
00000110: 14fe 2ebe 005f a23e 5eb0 3cbf d75a 833e
00000120: f5a1 373f ebc6 a03d bc4d 20be d69a 43bd
00000130: d70d 0ebf d397 6a3f 04bd b73d 0bac 273e
00000140: a22e 1dbe 23b1 ba3e 1e9a fcbe 7456 20bf
00000150: 8365 a5be de33 2e3f b56e 14be 31a5 c6ba
00000160: 3583 23bf 79df d33e b0b9 1f3e aa35 313e
00000170: 3d81 883f 4af7 3cbe cff0 4ebd 728f 7e3e
00000180: 1893 8c3e b362 41bd 448e f03e c096 763d
00000190: c206 113f b2b6 b2be 246a 1f3f 74c1 c3be
000001a0: 7052 263f d246 e1bd 99cd 6abe 00bd 2f3e
000001b0: e42c f8be 4be5 d23e cac8 433d 227e 893f
000001c0: 5553 d5bd 99d6 eebe 4abe a5bd e53b 093f
000001d0: d7cb 323d 9333 a13d fdfc 8cbe 6612 31be
000001e0: 6ee0 61be ecb1 78bf caec 17bf 5148 073f
000001f0: bf26 32bf b1e4 e0be 15b2 883e fa27 f73d
00000200: d817 23be 15dd 9b3e ffef a73e 490d 0bbe
00000210: c289 9abe 5d2f e7be a506 0f3f 3e26 c53e
00000220: 4def 59bd c27f 41be 54ff 373e da4d 5cbe
00000230: 8d78 2b3e abe7 a23c 157a d63e bdb2 25be
00000240: bf6d 823d 2b43 513e 09f3 99be 1801 0fc0
00000250: 97f8 d5bf d604 b7bd d511 f03e 485e fcbd
00000260: e75d 653e 2231 5bbd cb29 e73c 19e0 19bf
00000270: 90cd 15be 90ef 7cbe 984d f23d e109 e3be
00000280: f09a ecbe a3ed a53e 72af 56be e3ea ebbe
00000290: 86ee 9c3d 6062 82be c219 c6be 0633 8e3e
000002a0: ee14 f43e 8e54 d73e d39e 21bf bdf4 19bf
000002b0: 347c 41bf d4f4 1dbe ed24 f3bb 7597 e7be
000002c0: 942c 623f a712 efbe 4f3a 88bd 1b44 3ebe
000002d0: 3d8d 0d3f b297 0ebf 1b0c 67bf c45c 73be
000002e0: d0b7 90be a518 53bf b137 2dbe b4f5 abbd
000002f0: c499 893e c09b 063e 49ab cbbe 5372 1cbf
00000300: 9421 a3be afc7 dc3e 7c9c 8fbe 7e17 5ebf
00000310: 3a72 5f3e 8b53 463f 26bc b23e 84cb 9fbe
00000320: 60aa d23e 8e70 113f ce60 863e 5f02 8cbd
00000330: a84a cfbe faea f3bc 395c cc3e 0e17 fd3e
00000340: d5a3 51be 1c78 013f d387 673e 51f1 18bf
00000350: 771c 073f f4e5 7d3e 9f90 cfbe bde6 86be
00000360: a011 b4be b48e 2cbf 552b 193e 1c59 49bd
00000370: 4921 5a3f 52e3 f43e af51 543e 37b9 bbbe
00000380: 9609 063f 11af 913e 8d41 a6be e890 833e
00000390: c558 c93e 9979 44be 6612 c4be 1823 29bf
000003a0: 063c f9bd 4454 06bf 122f 393f b7fb 1d3f
000003b0: 2263 b73d 1e5d 9e3d 861b f8be ecea dc3e
000003c0: f42c 04be 5928 883e f38a b9be 9b95 883e
000003d0: 587c d93e dae9 013e 617d 983e 6720 ba3e
000003e0: 82ca 2d3e 1b76 8b3f a6a5 75bf 9e1e 67bf
000003f0: 8f19 2b3f 7f6f 3e3e eb54 2b3f 3ec9 64bd

body.0.b0.body.1.body.2.weight_g f4 [64, 1, 1, 1]
0.9086789 1.0561672 0.8973838 1.0833135 1.670501 0.905889 1.2129047 0.9973025
1.4173437 0.8657939 1.028897 0.8979457 0.6827932 0.7935797 0.6703189 1.200381
1.0267248 0.8055146 0.9135361 1.1254324 1.1750257 1.4690784 0.87259865 1.0793631
0.7528331 1.0031403 0.7812627 0.8441935 0.73502386 1.0315663 0.8449038 1.2018467
0.955452 0.90911514 0.9651982 0.92904246 0.7191931 1.1593752 1.1374346 1.4081732
2.6873877 0.86312824 1.0499294 1.0257192 1.0040942 1.2638775 0.85861206 0.94524133
0.7428774 0.6366155 1.2231456 1.1716305 1.2821659 0.86440665 1.7883474 1.0354391
1.1870137 1.0714753 1.6049747 1.1565602 0.8891841 1.4167494 0.89458776 0.9686517
00000000: 2e9f 683f 7d30 873f f2ba 653f 04aa 8a3f
00000010: fad2 d53f 57e8 673f 7640 9b3f 374f 7f3f
00000020: 856b b53f aba4 5d3f e6b2 833f c5df 653f
00000030: 89cb 2e3f 0a28 4b3f 059a 2b3f 16a6 993f
00000040: b86b 833f 3436 4e3f 80dd 693f 2b0e 903f
00000050: 3e67 963f c30a bc3f a062 5f3f 9228 8a3f
00000060: acb9 403f e766 803f d500 483f 111d 583f
00000070: 862a 3c3f 5d0a 843f 9e4b 583f 1dd6 993f
00000080: 8198 743f c5bb 683f 3b17 773f bad5 6d3f
00000090: 0a1d 383f 6866 943f 7597 913f 053f b43f
000000a0: 29fe 2b40 f9f5 5c3f 1664 863f c44a 833f
000000b0: 2986 803f bdc6 a13f 00ce 5b3f 56fb 713f
000000c0: 372d 3e3f 3cf9 223f 0990 9c3f fdf7 953f
000000d0: 031e a43f c149 5d3f 91e8 e43f 4589 843f
000000e0: 11f0 973f 1a26 893f d06f cd3f 2a0a 943f
000000f0: 92a1 633f 0b58 b53f b403 653f 8ff9 773f

body.0.b0.body.1.body.2.weight_v f4 [64, 1, 3, 3]
0.47810847 0.8700562 0.65779316 -0.026713362 -0.4130374 -0.115043975 -0.28724006 -0.4363759
-0.2609718 0.05865726 -0.12383074 -0.113527395 0.9257852 -0.62234706 -0.052831642 0.15283206
-0.07585559 -0.15726924 -0.058009632 -0.06447849 -0.1147299 0.20396326 -0.0331816 -0.058034413
0.14177054 3.434681 0.13581137 -0.08997137 -0.44355035 0.069774926 -0.35845944 0.7789093
0.11713431 0.12267646 0.32182795 -0.6269138 -0.0065921014 -0.07464609 -0.036976617 -0.2697326
1.8090413 -0.24755728 0.08403218 0.030804355 -0.05742359 -0.24325977 0.0963507 0.01806853
-1.0839134 0.6681237 0.6118175 -0.13728753 -0.04687158 0.031749446 -0.107014984 -0.21988945
-0.12561768 -0.11020664 -0.9059502 -0.08328064 0.20334728 1.1157646 0.2566319 -0.18595111
0.004895101 0.21236351 0.58569914 0.5807773 1.7808313 -0.25052905 0.0076505938 -0.025574198
0.072427735 0.4754453 0.06796622 0.46203622 1.4465387 0.49485955 0.016328989 0.16992186
-0.000379305 0.8318846 -0.22511958 -0.07168722 0.96526355 -0.81955075 0.07042425 -0.10162044
0.008048586 0.031258207 -0.038756523 0.59328383 -0.2730213 -0.29997322 0.34716842 -0.89415663
0.15489058 0.42529935 -0.103727415 0.2931764 1.0410732 0.7506826 0.11626648 -0.63012177
0.31497952 0.14039418 0.19722196 0.076006174 -0.14148043 0.7476109 -0.33326417 0.07973059
0.799183 0.060215514 0.5437485 0.8667894 0.49211222 -0.5674077 0.3388536 0.47928292
1.007013 -0.5932038 0.163882 0.23550583 0.04791896 -0.040414453 0.3473444 1.2509385
0.36837855 0.29390246 0.6909151 0.16456832 -0.104033574 0.11028335 -0.17350833 0.28647372
-0.546781 -0.15460438 0.6835901 -0.21938907 -0.50735307 0.45868656 0.24826127 -0.35392383
0.0631212 -0.29763958 -0.28731704 0.29053554 1.5171896 -0.5135059 -0.27297327 0.16384411
-0.07248685 0.34303543 0.2059697 0.3717915 0.46238297 0.7508887 0.8004421 0.37685466
0.4925471 0.18657117 -0.065504745 0.020642981 -0.016679432 -0.4607178 1.5378273 0.50410914
-0.060474943 0.019284084 0.013894553 0.28340003 0.09699938 -0.354705 1.1371844 -0.014074353
-0.7324454 0.08571286 0.0063464604 -0.3176072 -0.5834187 -0.29775918 0.34651193 -0.24860011
0.450647 0.1806881 0.42399967 0.20505755 -0.57282674 0.47914737 0.23233068 0.44702172
-0.47140756 -0.5951491 -0.7128177 0.36812922 0.15732184 0.43834552 0.105445586 0.7068515
0.59343153 -0.1805009 -0.5699555 0.14565678 0.021653548 -0.26169908 -0.47176108 -7.901379e-05
-0.059206486 -0.34346345 -0.18191193 0.096058525 1.4689149 0.056538023 0.2899274 -0.3933743
0.8698863 0.30077127 0.6082151 0.18998322 -0.30038813 0.7311133 0.24311115 0.4284896
1.1024094 -0.12893648 0.4064691 0.48276812 -0.5842255 -0.17474382 0.58419204 -0.2754515
-0.53351027 0.07818499 0.015088177 -0.55742216 -0.20180711 0.1971535 -0.29099602 -0.25330877
-0.047057096 1.1634698 0.58191705 0.18938583 0.8528691 0.27677295 -0.16332957 -0.3218641
0.13096248 -0.12355855 -0.71649647 -0.21987137 -0.47807813 -0.13603136 0.36702237 0.17778425
00000000: a2ca f43e 01bc 5e3f 2265 283f fbd5 dabc
00000010: a379 d3be 2d9c ebbd 2111 93be a96c dfbe
00000020: 199e 85be 9842 703d f99a fdbd 0d81 e8bd
00000030: 4200 6d3f 2352 1fbf fe65 58bd 0280 1c3e
00000040: 2d5a 9bbd 300b 21be 829b 6dbd 4c0d 84bd
00000050: 83f7 eabd bfdb 503e 6ee9 07bd 7eb5 6dbd
00000060: 4c2c 113e d0d1 5b40 2312 0b3e e942 b8bd
00000070: 0819 e3be 28e6 8e3d ff87 b7be 9a66 473f
00000080: 1de4 ef3d cc3d fb3d a2c6 a43e 6c7d 20bf
00000090: 8e02 d8bb 0de0 98bd cb74 17bd 641a 8abe
000000a0: aa8e e73f a87f 7dbe 1019 ac3d 6a59 fc3c
000000b0: 0035 6bbd 1719 79be 8453 c53d 7404 943c
000000c0: adbd 8abf 280a 2b3f 12a0 1c3f 1a95 0cbe
000000d0: 6afc 3fbd b50b 023d ac2a dbbd b32a 61be
000000e0: eca1 00be 05b4 e1bd 5aec 67bf 0a8f aabd
000000f0: 453a 503e 60d1 8e3f 4265 833e f869 3ebe
00000100: 1567 a03b d275 593e 61f0 153f d2ad 143f
00000110: 48f2 e33f 5845 80be d5b1 fa3b fb80 d1bc
00000120: fe54 943d 916d f33e e031 8b3d 0390 ec3e
00000130: 2e28 b93f 3b5e fd3e 5fc4 853c ffff 2d3e
00000140: 75dd c6b9 64f6 543f bf85 66be c0d0 92bd
00000150: 831b 773f 14ce 51bf 973a 903d 611e d0bd
00000160: 37de 033c 9b08 003d 29bf 1ebd 73e1 173f
00000170: 73c9 8bbe 1796 99be 0fc0 b13e 73e7 64bf
00000180: a39b 1e3e d6c0 d93e 0a6f d4bd 381b 963e
00000190: e341 853f bc2c 403f 1f1d ee3d a94f 21bf
000001a0: ff44 a13e 7ec3 0f3e 8ef4 493e 20a9 9b3d
000001b0: 3fe0 10be 6e63 3f3f 9aa1 aabe cb49 a33d
000001c0: 4297 4c3f 8ba4 763d 1a33 0b3f e9e5 5d3f
000001d0: 22f6 fb3e a241 11bf 387e ad3e 9264 f53e
000001e0: cde5 803f 34dc 17bf afd0 273e 7128 713e
000001f0: ac46 443d a089 25bd 20d7 b13e c11e a03f
00000200: 1d9c bc3e 627a 963e d0df 303f 9984 283e
00000210: 8e0f d5bd 3ddc e13d 2bac 31be afac 923e
00000220: d7f9 0bbf 9c50 1ebe c3ff 2e3f 87a7 60be
00000230: e4e1 01bf f7d8 ea3e 3438 7e3e 8135 b5be
00000240: b045 813d 3764 98be 381b 93be 13c1 943e
00000250: 4533 c23f 1f75 03bf 27c3 8bbe c0c6 273e
00000260: fc73 94bd 57a2 af3e b9e9 523e 755b be3e
00000270: 76bd ec3e 3e3a 403f c6e9 4c3f 18f3 c03e
00000280: 222f fc3e 830c 3f3e 5a27 86bd 781b a93c
00000290: 4ea3 88bc 34e3 ebbe 86d7 c43f 4c0d 013f
000002a0: 93b4 77bd a8f9 9d3c fba5 633c cf19 913e
000002b0: 9ca7 c63d e59b b5be 428f 913f 1d98 66bc
000002c0: 8b81 3bbf 398a af3d f8f5 cf3b 699d a2be
000002d0: ee5a 15bf e473 98be 036a b13e 0791 7ebe
000002e0: 34bb e63e 4d06 393e 7c16 d93e 9bfa 513e
000002f0: c6a4 12bf ce52 f53e 18e8 6d3e 08e0 e43e
00000300: 555c f1be b15b 18bf 397b 36bf 6f7b bc3e
00000310: fa18 213e d36e e03e dbf3 d73d 38f4 343f
00000320: 21eb 173f 3ad5 38be 9be8 11bf 0d27 153e
00000330: c862 b13c 6cfd 85be ab8a f1be 35b4 a5b8
00000340: 8082 72bd 71da afbe 1f47 3abe 55ba c43d
00000350: 6705 bc3f 6a94 673d 5d71 943e 5b68 c9be
00000360: deb0 5e3f b1fe 993e fcb3 1b3f f68a 423e
00000370: 79cc 99be 3e2a 3b3f 21f2 783e fd62 db3e
00000380: c01b 8d3f ed07 04be b81c d03e 622d f73e
00000390: cd8f 15bf 0bf0 32be 9c8d 153f fb07 8dbe
000003a0: 2194 08bf 741f a03d 6734 773c 38b3 0ebf
000003b0: 86a6 4ebe 9be2 493e 6efd 94be b0b1 81be
000003c0: f1be 40bd 94ec 943f 84f8 143f 5cee 413e
000003d0: a155 5a3f 2fb5 8d3e de3f 27be 5fcb a4be
000003e0: 071b 063e 440c fdbd 506c 37bf f625 61be
000003f0: a8c6 f4be ce4b 0bbe 5bea bb3e 130d 363e

body.0.b0.body.1.body.4.weight_g f4 [32, 1, 1, 1]
0.8003831 0.8591432 0.84902877 0.95826113 0.8366643 1.302656 0.89780945 1.0815815
0.9754002 0.8288728 0.77888125 0.8817684 0.55401033 0.7966734 0.9106393 1.0251374
0.68654364 0.73044294 0.73470944 0.7144593 0.98542815 0.9689803 0.6292729 1.099363
0.9826999 1.162716 1.1908776 0.90306765 0.76628613 1.0864618 0.93653554 0.563239
00000000: e8e5 4c3f cff0 5b3f f359 593f 9a50 753f
00000010: a22f 563f 6fbd a63f d7d6 653f 4371 8a3f
00000020: d4b3 793f 0231 543f c364 473f 93bb 613f
00000030: 9fd3 0d3f caf2 4b3f a81f 693f b437 833f
00000040: 53c1 2f3f 4ffe 3a3f eb15 3c3f cee6 363f
00000050: 0545 7c3f 180f 783f 0718 213f edb7 8c3f
00000060: 3892 7b3f e1d3 943f ad6e 983f 712f 673f
00000070: 542b 443f 2e11 8b3f cbc0 6f3f 6e30 103f
