MSSN_code/src/experiment/MSSN_S_x3/model/model_best.pt (torch_old, 384107 bytes, 105 tensors)

head.0.bias f4 [32]
0	0xbe11239f	-0.14173745
1	0x3dfe91d2	0.12430157
2	0xbdd62dc6	-0.10457949
3	0xbe5c8658	-0.21535623
4	0xbcfef363	-0.031121915
5	0x3e654964	0.22391278
6	0xbed0b483	-0.4076272
7	0xbcd2a290	-0.025712281
8	0x3c9504a6	0.018190693
9	0xbd3e9067	-0.04652443
10	0x3db91114	0.090364605
11	0xbc44a9f6	-0.0120034125
12	0xbc83d8c4	-0.016094573
13	0x3d0d948e	0.0345655
14	0xbbfde920	-0.007748738
15	0x3c74f1ab	0.014950196
16	0xbe533c0c	-0.20628375
17	0xbaddd2b1	-0.0016923753
18	0x3ddd8be5	0.108176984
19	0x3eb85af7	0.360069
20	0x3dd8c311	0.10584081
21	0xbecc4df8	-0.39903235
22	0x3e09c555	0.13454182
23	0x3e10630e	0.14100286
24	0x3be3cdb1	0.0069520106
25	0x3da107fc	0.07862851
26	0xbe415ed1	-0.18883826
27	0x3e589935	0.21152194
28	0x3daeb113	0.08529868
29	0x3ce6f9bf	0.02819526
30	0xbd8eaf35	-0.06967012
31	0xbecf6d08	-0.40512872

head.0.weight_g f4 [32, 1, 1, 1]
0	0x3fb29215	1.3950831
1	0x3fac4ca7	1.3460892
2	0x3e721c5f	0.23643635
3	0x3f5671e4	0.83767533
4	0x3ef441a4	0.4770633
5	0x3f33cafa	0.7023159
6	0x3f3b0567	0.7305512
7	0x3f7f7361	0.9978543
8	0x3f829522	1.0201762
9	0x3f825f9d	1.0185429
10	0x3f7ed88a	0.9954916
11	0x3e41591c	0.18881649
12	0x3e9d35ae	0.30705017
13	0x3f04e3ce	0.519101
14	0x400767d8	2.1157131
15	0x3f5fc029	0.8740259
16	0x3fbf21b5	1.4932162
17	0x3fe0d030	1.7563534
18	0x3ef2fc5d	0.47458163
19	0x3ee2a525	0.4426662
20	0x3f092790	0.5357599
21	0x3ee6c837	0.45074627
22	0x3f106bdf	0.564146
23	0x3f1c8a66	0.6114868
24	0x3f542f04	0.8288424
25	0x3f129d28	0.5727105
26	0x3f3e7757	0.7440085
27	0x3f6dfb6b	0.9296176
28	0x3ec7275b	0.38897213
29	0x3ef96b96	0.48714894
30	0x3f9d2648	1.2277308
31	0x3eeb4087	0.45947668

head.0.weight_v f4 [32, 3, 3, 3]
0	0x3d46718e	0.048448138
1	0x3dff44ff	0.12464332
2	0x3d2ae344	0.041720644
3	0x3e80a747	0.25127622
4	0xbf9014f5	-1.1256396
5	0x3f26974a	0.650746
6	0xbd9ced73	-0.07662477
7	0x3d892d28	0.06698066
8	0x3c446126	0.011986053
9	0x3d8a8659	0.06763906
10	0x3d5e9681	0.05434275
11	0xbd22c351	-0.03973705
12	0x3dbdc8ad	0.092667915
13	0xbeb3ff39	-0.35155657
14	0x3d5dffe6	0.054199122
15	0x3d3916ec	0.045187876
16	0x3daff0b9	0.08590836
17	0xbd8250aa	-0.06363042
18	0x3dff57e1	0.124679334
19	0x3e3a2146	0.18176755
20	0xbcb099b7	-0.021557672
21	0xbc9ea6d6	-0.019366663
22	0xbf0e51fd	-0.55593854
23	0x3d010f00	0.031508446
24	0xbb5950be	-0.0033159698
25	0x3e79aadb	0.24381582
26	0x3d99656f	0.0749005
27	0x3c890f0a	0.016730804
28	0xbede7791	-0.43450597
29	0x3d45cc62	0.048290618
30	0xbd4f0319	-0.050540064
31	0x3f954c38	1.1663885
32	0x3d850000	0.064941406
33	0xbde0f89e	-0.1098492
34	0xbf24a29d	-0.6431063
35	0xbc5b895f	-0.013399451
36	0x3e45bce7	0.19310342
37	0xbcfee576	-0.031115275
38	0x3b13c856	0.002254983
39	0xbca93950	-0.020657212
40	0x3f207aaa	0.6268717
41	0xbea3ac8a	-0.31967574
42	0x3d082eb7	0.033247676
43	0xbe8080e3	-0.25098333
44	0xbe0aac6c	-0.13542336
45	0x3d886b0d	0.06661043
46	0xbd397934	-0.045281604
47	0x3da495a4	0.08036354
48	0xbe1cd11c	-0.15314144
49	0xbcef489d	-0.02920943
50	0xbec084f8	-0.37601447
51	0x3c4108a1	0.011781842
52	0x3e9a5d18	0.3014915
53	0x3d1f7d9c	0.03893815
54	0x3edbf573	0.429607
55	0x3e68b2dc	0.2272448
56	0xbdcfb320	-0.10141587
57	0xbe91b778	-0.28460288
58	0x3f389bab	0.7211253
59	0x3d6b68b5	0.057472903
60	0xbeb4b653	-0.35295352
61	0x3e996adf	0.2996435
62	0x3e39f3d3	0.18159418
63	0x3e6a8c64	0.22905117
64	0xbe9c90e3	-0.3057929
65	0xbc4cbe12	-0.012496488
66	0x3d922a11	0.0713693
67	0xbe3cc73a	-0.18435374
68	0xbea4a12a	-0.32154208
69	0xbefb03e8	-0.49026418
70	0x3ea6083c	0.32428157
71	0x3cc4e1de	0.024033483
72	0x3da9d702	0.082929626
73	0x3eac8c7b	0.33700928
74	0x3d0da104	0.034577385
75	0x3e0aa6de	0.13540217
76	0x3d9cafcd	0.07650719
77	0xbca09304	-0.019601353
78	0xbf271b74	-0.65276265
79	0x3ded1580	0.115763664
80	0xbead3c86	-0.33835238
81	0xbcd00c10	-0.025396377
82	0xbe011745	-0.12606533
83	0x3cf693c2	0.030099753
84	0x3e870978	0.26374412
85	0xbf1d0292	-0.61332047
86	0xbbb71c25	-0.005588072
87	0x3dc307ef	0.095229976
88	0x3e2b53ad	0.16731139
89	0x3e0fd599	0.14046325
90	0x3dffa748	0.12483078
91	0xbea4b0e6	-0.32166213
92	0x3da112a0	0.078648806
93	0x3e386064	0.1800552
94	0xbf8360eb	-1.0263952
95	0xbe3526c5	-0.1769057
96	0x3e2b8258	0.16748941
97	0x3ea2dd19	0.3180931
98	0x3c32259b	0.010873224
99	0xbd867d63	-0.06566884
100	0x3dad41d2	0.0845982
101	0xbd9043a2	-0.0704415
102	0x3e86ac31	0.26303247
103	0x3f1a9c74	0.6039498
104	0xbe1a064f	-0.15041469
105	0xbe3481c8	-0.17627633
106	0x3e74aad2	0.23893288
107	0xbddeb869	-0.10875017
108	0x3e4c00ed	0.19922228
109	0x3eca337a	0.39492399
110	0x3e017d37	0.12645422
111	0x3e8ac9f0	0.2710719
112	0x3ee31930	0.44355154
113	0xbf005bc1	-0.50140005
114	0xbd6ed149	-0.05830506
115	0x3d334c05	0.04377367
116	0xbd3092f2	-0.043108888
117	0x3d603083	0.054733764
118	0xbe86ee1e	-0.26353544
119	0xbd0f5ea7	-0.035002377
120	0xbe9568aa	-0.29181415
121	0x3e4d6193	0.20056753
122	0xbc93f31e	-0.018060263
123	0xbee5b6fe	-0.44866174
124	0x3e14f776	0.14547524
125	0xbe5b770a	-0.21432129
126	0xbe3d5d9a	-0.18492737
127	0xbe8a2ed9	-0.26988867
128	0x3dd2d924	0.102953225
129	0x3e81672b	0.25274023
130	0xbf57026b	-0.83988065
131	0x3e7211d8	0.2363962
132	0x3d456034	0.04818745
133	0x3f3655d3	0.7122471
134	0x3e66ba51	0.22532012
135	0x3dc678be	0.096909985
136	0x3dc99158	0.09842175
137	0x3d8825d4	0.0664784
138	0xbe350d25	-0.17680795
139	0xbeec5eec	-0.4616617
140	0x3c62be18	0.013839267
141	0x3b789c74	0.003793505
142	0xbe574c81	-0.21025278
143	0xbd12d0d2	-0.035843678
144	0x3e29e8ce	0.16592714
145	0xbca9b4b4	-0.020716049
146	0x3d763661	0.060110454
147	0x3e987d8a	0.2978328
148	0x3f0bb43a	0.5457188
149	0x3eab0814	0.334046
150	0x3e0e275f	0.13882206
151	0x3ef35b9c	0.4753083
152	0xbd41b2a0	-0.04728949
153	0xbe4fbe77	-0.202875
154	0xbebfcbbc	-0.37460124
155	0x3be0147d	0.00683838
156	0xbebd1570	-0.36930418
157	0xbf28d079	-0.65943104
158	0x3e8f7afc	0.28023517
159	0xbdfa4d80	-0.12221813
160	0xbe1d6741	-0.1537142
161	0x3e13d892	0.14438084
162	0x3daaa8de	0.0833299
163	0x3f0c0399	0.5469299
164	0xbde8e51e	-0.11371826
165	0x3dd00812	0.10157789
166	0xbe963f08	-0.29344964
167	0xbe780c30	-0.24223399
168	0xbe0b1542	-0.13582328
169	0xbf11f753	-0.5701801
170	0xbd6e59ea	-0.058191217
171	0x3dfd70a3	0.123749994
172	0x3ebf2dae	0.37339538
173	0xbdcf20ad	-0.10113654
174	0x3eb7821e	0.3584146
175	0x3f4f8b2e	0.81071746
176	0x3e7acd7e	0.24492452
177	0x3c727d62	0.014800401
178	0xbf0dccf3	-0.5539085
179	0x3e0dab6c	0.13834924
180	0xbd97847c	-0.07398316
181	0x3d48d56a	0.049031653
182	0xbd8dd450	-0.06925261
183	0xbc8cd4d3	-0.017191326
184	0xbef02397	-0.46902153
185	0x3e9b89fa	0.30378705
186	0xbd3b58ce	-0.045738988
187	0xbe930353	-0.28713474
188	0x3e018240	0.12647343
189	0xbd2819cf	-0.041040238
190	0x3e08a94d	0.13345833
191	0x3dca01ee	0.09863649
192	0xbeb19656	-0.3468501
193	0xbee77aa0	-0.45210743
194	0x3efdd7be	0.4957866
195	0xbde28b45	-0.1106172
196	0x3d8f3f32	0.069944754
197	0x3dea7e29	0.114498444
198	0x3e028f29	0.12749924
199	0xbe877a4f	-0.26460502
200	0x3d99e144	0.07513669
201	0xbefce0d7	-0.4939029
202	0x3f90b04c	1.1303802
203	0xbebebeaa	-0.3725484
204	0x3caf1e78	0.021376833
205	0xbe82a5ea	-0.25517207
206	0xbdd7e30d	-0.105413534
207	0xbd501b41	-0.05080724
208	0xbe06d4ba	-0.13167086
209	0xbc6eb523	-0.014569554
210	0xbe8952f8	-0.26821113
211	0x3b96cd45	0.0046021068
212	0xbe8da393	-0.2766386
213	0x3e1dc385	0.15406616
214	0x3efc8a10	0.49324083
215	0x3db178a4	0.086655885
216	0x3cfe98de	0.031078752
217	0xbe774f2e	-0.24151298
218	0x3c149227	0.009068049
219	0x3e013620	0.12618303
220	0xbee44197	-0.4458129
221	0x3e258faf	0.16168092
222	0xbde713c7	-0.11283069
223	0xbe160cef	-0.14653371
224	0x3d80abf5	0.06282798
225	0xbe3f6102	-0.1868935
226	0xbe211244	-0.15729624
227	0x3baefb59	0.0053400216
228	0x3eaca6ab	0.33720908
229	0x3f4ef163	0.80837077
230	0xbd882a6c	-0.06648716
231	0xbe0043d6	-0.12525877
232	0x3e972f20	0.2952814
233	0xbce43690	-0.027858049
234	0xbd51da0d	-0.05123334
235	0xbccdb981	-0.02511287
236	0xbe450099	-0.19238509
237	0x3df10e77	0.11770337
238	0x3f0dd121	0.5539723
239	0xbec482ac	-0.38380945
240	0xbe3f144a	-0.18660083
241	0xbd955194	-0.072909504
242	0xbd9febf0	-0.078086734
243	0x3d439735	0.047751624
244	0xbe90799c	-0.2821778
245	0x3d45bcab	0.04827563
246	0xbb1cc186	-0.002391906
247	0xbf62c768	-0.8858552
248	0xbee0470d	-0.43804207
249	0x3e6e8df6	0.23296341
250	0x3f35f334	0.71074224
251	0x3c8357b2	0.016033027
252	0x3ca81aec	0.02052065
253	0xbc37e9b8	-0.0112251565
254	0xbbaafb8f	-0.0052179764
255	0xbe1d2439	-0.15345849

body.0.b0.body.0.body.0.weight_g f4 [64, 1, 1, 1]
0	0x3f5da6cf	0.86582655
1	0x3f85c420	1.0450478
2	0x3f3cfbd8	0.73821783
3	0x3f9cb5bc	1.2242961
4	0x3f759016	0.9592298
5	0x3f2a54e3	0.66535777
6	0x3f9fb0e2	1.2475855
7	0x3f43b2ec	0.7644489
8	0x3f8d0097	1.1015805
9	0x3f9fb52d	1.2477165
10	0x3f4ed143	0.8078806
11	0x3f6c21bf	0.9223899
12	0x3f6c2e81	0.9225846
13	0x3f52ccdf	0.8234386
14	0x3f2502bb	0.6445729
15	0x3f65bf62	0.8974515
16	0x3f975f39	1.1825935
17	0x3f5cb6bf	0.8621635
18	0x3f687a92	0.9081203
19	0x3fa9055e	1.3204763
20	0x3f86ea23	1.0540203
21	0x3fde9b6e	1.7391183
22	0x3fb32baf	1.3997706
23	0x3f30fcb0	0.6913557
24	0x3f2ccdbb	0.6750142
25	0x3f346c3a	0.7047764
26	0x3f6b6df6	0.9196466
27	0x3f9c12a0	1.2193184
28	0x3f4c9e4e	0.79929054
29	0x3f98170e	1.1882036
30	0x3faf67a6	1.3703506
31	0x3f87fb1d	1.0623509
32	0x3f822d6f	1.0170115
33	0x3f8d5c7d	1.104385
34	0x3faea5fb	1.3644403
35	0x3f78778c	0.97057414
36	0x3f663eb0	0.89939404
37	0x3f4a3565	0.78987724
38	0x3f68fc9f	0.9101047
39	0x3f6bd40c	0.9212043
40	0x3fa343bf	1.275505
41	0x3f7fbd28	0.99898005
42	0x3f65df74	0.8979409
43	0x3f323891	0.69617563
44	0x3f913dbc	1.1346965
45	0x3f3e297c	0.7428205
46	0x3f66090b	0.8985755
47	0x3f491ad2	0.7855655
48	0x3f5b42b8	0.8564868
49	0x3f55e601	0.83554083
50	0x3f3d926d	0.74051553
51	0x3f620939	0.8829532
52	0x3fa0aeb4	1.2553315
53	0x3f351bb1	0.7074538
54	0x3f734f1e	0.950426
55	0x3f88e695	1.0695368
56	0x3f31b282	0.69413006
57	0x3f879532	1.0592406
58	0x3fa3c649	1.2794887
59	0x3f81da06	1.014466
60	0x3fca0d23	1.5785259
61	0x3f9bf5da	1.2184403
62	0x3f6a76a1	0.91587263
63	0x4012a3d2	2.2912488

body.0.b0.body.0.body.0.weight_v f4 [64, 32, 1, 1]
0	0x3d4e65b9	0.05038998
1	0xbdfa4ae7	-0.12221318
2	0x3df31d76	0.118708536
3	0x3f1eba0e	0.62002647
4	0x3e1868a1	0.14883663
5	0x39744d8e	0.00023298545
6	0x3ce33cba	0.027738918
7	0xbe29be24	-0.16576439
8	0x3f252df7	0.6452326
9	0xbe94df91	-0.29076818
10	0x3e799d5d	0.24376436
11	0x3f69a303	0.9126436
12	0xbf927c32	-1.1444151
13	0x3d11ecc0	0.035626173
14	0x3c83b105	0.01607562
15	0x3f6ec0a0	0.9326267
16	0xbead635c	-0.33864868
17	0xbea523c9	-0.32253864
18	0x3d04be1a	0.032407857
19	0xbe6660dc	-0.22497886
20	0x3c8349eb	0.016026458
21	0xbeaad8c7	-0.33368513
22	0x3d919749	0.071089335
23	0x3d83a63e	0.064281926
24	0xbf8794b2	-1.0592253
25	0x3d59111f	0.052994844
26	0xbfce3253	-1.6109108
27	0x3e7ecaa5	0.2488199
28	0x3ec8c50b	0.39212832
29	0x3e8b9c59	0.2726772
30	0xbba170ac	-0.0049267616
31	0x3e7218b4	0.23642236
32	0xbea6fd9f	-0.32615373
33	0x3f7a38d0	0.9774294
34	0xbe820535	-0.25394598
35	0x3e69ff37	0.22851263
36	0xbc36c06c	-0.011154275
37	0x3e7bc3bf	0.2458639
38	0xbeeafa13	-0.45893916
39	0x3ec8bf27	0.39208338
40	0x3ed49e0a	0.41526824
41	0x3eb4e17e	0.35328287
42	0xbbea0ed3	-0.0071428805
43	0xbe623413	-0.22090177
44	0x3f0fcc77	0.56171364
45	0x3fb14013	1.3847679
46	0x3e25fdf1	0.16210152
47	0xbe81e979	-0.25373438
48	0x3ee7ff72	0.45312077
49	0x3f005ae0	0.50138664
50	0xbf3e20f1	-0.74269015
51	0xbe3c16f3	-0.1836813
52	0xbe6d1f17	-0.23156391
53	0x3e5c2893	0.21499853
54	0xbe46c78a	-0.19412056
55	0x3e53da2e	0.20688698
56	0x3e90d8a0	0.28290272
57	0x3f267646	0.6502422
58	0xbe543f6f	-0.20727323
59	0xbef26a98	-0.4734695
60	0x3e694a70	0.22782302
61	0x3ee93001	0.45544437
62	0xbdef930a	-0.11697967
63	0x3dbeff77	0.0932607
64	0xbf1a09f6	-0.6017145
65	0x3da717fe	0.08158873
66	0xbed10211	-0.4082189
67	0xbda5c8f9	-0.08094973
68	0x3eb39398	0.35073543
69	0x3e069de3	0.13146167
70	0x3e2df3a3	0.16987471
71	0xbc34e18f	-0.0110401055
72	0x3f72cccf	0.94843763
73	0x3df7de70	0.121029735
74	0x3f227a52	0.63467896
75	0x3f38a7c3	0.72130984
76	0xbec4df75	-0.38451734
77	0x3f296c47	0.66180843
78	0x3d8777e1	0.06614662
79	0xbe9d881c	-0.30767906
80	0x3f345fd0	0.704587
81	0xbe309454	-0.17244083
82	0xbe956447	-0.29178068
83	0xbe46105a	-0.19342175
84	0xbf27eb5c	-0.65593505
85	0xbe8e6ceb	-0.27817473
86	0x3f2b8292	0.6699611
87	0x3f355982	0.70839703
88	0xbdc5d290	-0.09659302
89	0x3f853cf9	1.0409232
90	0x3dbc30b2	0.091889754
91	0x3f2c2558	0.6724448
92	0xbe5f536e	-0.2180917
93	0x3eb35514	0.35025847
94	0xbf002864	-0.5006163
95	0x3e6e11c8	0.2324897
96	0x3dc2f5c0	0.09519529
97	0xbebe494d	-0.371653
98	0xbf13a91e	-0.5767993
99	0xbf1c80dc	-0.61134124
100	0xbee3e56a	-0.44510967
101	0x3eab7623	0.3348857
102	0xbefc41e4	-0.4926902
103	0x3c670624	0.014100585
104	0x3dca3fbc	0.098754376
105	0xbf472407	-0.7778935
106	0x3df73d18	0.120721996
107	0x3f8bc8a8	1.092061
108	0xbf2bd123	-0.6711599
109	0x3ddc049a	0.10743065
110	0xbf5d1a1c	-0.86367965
111	0x3e19f1ef	0.15033697
112	0x3f051a2d	0.51993066
113	0xbee3dcdf	-0.4450445
114	0xbd3c9a0a	-0.04604534
115	0xbebe1e71	-0.371326
116	0x3f9018e5	1.1257597
117	0x3e098dc0	0.1343298
118	0xbf5670d9	-0.8376594
119	0xbe67fd6c	-0.22655267
120	0x3f04c282	0.51859295
121	0xbe30c00c	-0.1726076
122	0x3e035d27	0.12828504
123	0x3fa3ab2b	1.2786611
124	0x3e6cab53	0.2311223
125	0x3d42c898	0.047554582
126	0xbe5034cc	-0.2033264
127	0x3d65d734	0.056113437
128	0x3e647482	0.22310069
129	0x3f6415d9	0.89095837
130	0xbf0f7b39	-0.560474
131	0xbe5b4cf0	-0.21416068
132	0x3f508086	0.8144611
133	0x3deb99b1	0.11503924
134	0xbe62a4a6	-0.22133121
135	0x3e949f74	0.29027903
136	0x3e401236	0.18756947
137	0xbf21ffed	-0.63281137
138	0xbdb66999	-0.0890686
139	0xbed637ca	-0.4183944
140	0x3e194855	0.14968999
141	0x3e5dc58a	0.21657386
142	0xbea03aa0	-0.31294727
143	0x3bf47232	0.007459902
144	0xbf7efed7	-0.99607605
145	0x3f1768c8	0.5914426
146	0xbea07624	-0.31340134
147	0x3f0cd512	0.5501262
148	0xbee45e69	-0.4460328
149	0x3ee8fbb3	0.4550453
150	0xbedfceb5	-0.43712392
151	0xbe3777e2	-0.17916825
152	0xbf21b1e6	-0.63162076
153	0xbe516ef7	-0.20452486
154	0x3f035620	0.5130329
155	0xbf35567f	-0.7083511
156	0x3edc3b7a	0.43014127
157	0x3cafeab1	0.021474214
158	0xbe843089	-0.2581828
159	0xbea31337	-0.31850597
160	0xbf00085d	-0.5001276
161	0x3e0ab634	0.13546067
162	0xbfac2c19	-1.3450958
163	0x3e2206a0	0.1582284
164	0xbf4663aa	-0.77495825
165	0xbe48ffe5	-0.19628866
166	0xbf6fbe53	-0.93649787
167	0x3c348888	0.01101888
168	0x3eeecce3	0.4664069
169	0x3e281ff8	0.16418445
170	0x3dd6a094	0.104798466
171	0xbf405f5c	-0.75145507
172	0x3e28cae1	0.16483642
173	0x3f817983	1.0115207
174	0x3f0c6beb	0.5485217
175	0x3ea7d688	0.32780862
176	0x3d48b6c3	0.04900242
177	0x3f4f65bd	0.81014615
178	0xbf4f8a17	-0.81070083
179	0xbe73b577	-0.23799692
180	0xbd5b3739	-0.05351946
181	0xbea1c4b6	-0.3159539
182	0x3d0ec0ff	0.034852024
183	0xbe409502	-0.18806842
184	0xbe8c8fd4	-0.27453482
185	0xbe23ceff	-0.15996931
186	0x3e8a41ff	0.27003476
187	0xbe8c9c95	-0.27463213
188	0xbf24e69d	-0.6441439
189	0x3eeab2d9	0.45839575
190	0x3e29b239	0.16571893
191	0xbddf70eb	-0.10910209
192	0xbe87a2dd	-0.26491442
193	0x3e0694dd	0.13142724
194	0x3d88e5c5	0.0668445
195	0x3ed442ea	0.414573
196	0x3e8d79df	0.27632043
197	0xbf2d50fd	-0.67701703
198	0xbeee6284	-0.46559536
199	0xbeb555f4	-0.3541714
200	0xbf2e53d1	-0.68096644
201	0xbedc5648	-0.43034577
202	0xbd008f1d	-0.031386483
203	0x3e5b371a	0.21407738
204	0xbea0593e	-0.31318086
205	0x3dcf94c8	0.101358
206	0xbf661a48	-0.8988385
207	0xbec46805	-0.3836061
208	0xbe3d22f4	-0.18470365
209	0xbf801845	-1.0007406
210	0xbe8ea133	-0.2785736
211	0x3ef5632f	0.47927234
212	0x3dfdf4b1	0.12400187
213	0x3afeb8f2	0.001943378
214	0xbedaafb3	-0.42712173
215	0x3f95a7c6	1.1691825
216	0xbe1bba99	-0.152079
217	0x3dda261f	0.10651802
218	0x3e11e339	0.14246835
219	0x3ac7a036	0.0015230242
220	0xbf1cacc3	-0.61201113
221	0xbe9a5d40	-0.3014927
222	0xbcc56437	-0.024095638
223	0xbd03e11d	-0.032197107
224	0xbe84380c	-0.2582401
225	0x3e950503	0.29105386
226	0x3e84fad4	0.25972617
227	0x3e95f686	0.29289645
228	0x3ece4243	0.4028493
229	0xbd502be3	-0.050823104
230	0xbef2eaa5	-0.47444645
231	0x3ec8c7a7	0.39214823
232	0x3eb3dd6a	0.35129863
233	0x3d2327c9	0.039832864
234	0x3e92f473	0.28702125
235	0xbec74383	-0.38918695
236	0x3f4e329a	0.8054596
237	0xbb2b88e8	-0.0026174132
238	0xbe1327db	-0.14370672
239	0x3cd624a4	0.026140518
240	0x3e94d488	0.29068398
241	0x3e57ae1b	0.2106251
242	0x3f934e7a	1.1508324
243	0x3e524a65	0.20536192
244	0x3ebbfc2e	0.36715835
245	0x3d0272f3	0.031847905
246	0xbf048303	-0.5176241
247	0x3ebf641b	0.37381062
248	0x3eb54e2e	0.3541121
249	0xbfa4cab8	-1.2874365
250	0x3e67b25c	0.22626632
251	0xbda89ddd	-0.08233235
252	0x3f554726	0.8331169
253	0xbf137210	-0.5759592
254	0x3e4d9af3	0.2007864
255	0xbf1df6d6	-0.61704767

body.0.b0.body.0.body.2.weight_g f4 [64, 1, 1, 1]
0	0x3f604df1	0.8761893
1	0x3f8ec955	1.1155192
2	0x3f39a99d	0.72524434
3	0x3f8d56cc	1.1042113
4	0x3f60dfb0	0.8784132
5	0x3f41966e	0.7562016
6	0x3f981525	1.1881453
7	0x3f3d1013	0.7385265
8	0x3f7428eb	0.95374936
9	0x3f9cacc5	1.2240225
10	0x3f5b61da	0.85696185
11	0x3f572234	0.84036565
12	0x3f995596	1.1979244
13	0x3f3658dc	0.7122934
14	0x3f1e8b4e	0.6193131
15	0x3f6fc463	0.9365904
16	0x3f8ac8ca	1.0842526
17	0x3f812b02	1.009125
18	0x3f5289cb	0.82241505
19	0x3fa5e572	1.2960646
20	0x3f91f503	1.1402897
21	0x3fd2b299	1.6460754
22	0x3fa8207b	1.3134912
23	0x3f21c13b	0.6318547
24	0x3f4c7a9c	0.7987459
25	0x3f2598f2	0.646865
26	0x3f7c937c	0.98662543
27	0x3f9bc38e	1.2169054
28	0x3f67d80e	0.9056405
29	0x3f9f13dd	1.2427937
30	0x3faf3e20	1.3690834
31	0x3f7ccebf	0.9875297
32	0x3f842cb5	1.0326144
33	0x3f991459	1.1959335
34	0x3f96980e	1.1765153
35	0x3f602ce0	0.87568474
36	0x3f4ed226	0.8078941
37	0x3f4db735	0.80357677
38	0x3f5c79ea	0.86123526
39	0x3f6125d3	0.8794834
40	0x3f9480e5	1.1601835
41	0x3f691e18	0.91061544
42	0x3f723af0	0.9462118
43	0x3f2abd84	0.6669543
44	0x3f7ecc69	0.99530655
45	0x3f4f88bd	0.8106802
46	0x3f82d85e	1.022228
47	0x3f4495cc	0.7679107
48	0x3f78dc16	0.97210824
49	0x3f5affc5	0.85546523
50	0x3f4bdc10	0.79632664
51	0x3f52605f	0.821783
52	0x3f8fda76	1.1238544
53	0x3f4c389c	0.7977388
54	0x3f7eca5a	0.99527514
55	0x3f65cf33	0.89769286
56	0x3f1bdcf8	0.60884047
57	0x3f8e4b6e	1.1116769
58	0x3fa9d016	1.3266628
59	0x3f7c89d5	0.98647815
60	0x3fd33ce5	1.6502959
61	0x3f9be8f9	1.2180473
62	0x3f5e4e3d	0.8683813
63	0x40133da8	2.3006382

body.0.b0.body.0.body.2.weight_v f4 [64, 1, 3, 3]
0	0xbe59bd6e	-0.21263668
1	0xbef71442	-0.48257643
2	0xbf2aa480	-0.6665726
3	0x3e9e32b2	0.30898052
4	0x3f2700a6	0.65235364
5	0x3f2b1087	0.66822094
6	0xbde81492	-0.113320485
7	0x3d9dcba1	0.07704855
8	0x3e943fb4	0.28954852
9	0xbe61faff	-0.22068404
10	0xbb10f689	-0.0022119603
11	0x3d39eb8f	0.04539066
12	0x3f16acd5	0.5885747
13	0xbf17c0ad	-0.59278375
14	0xbeb6b9f6	-0.35688752
15	0x3f36e60f	0.7144479
16	0xbe3f2104	-0.18664938
17	0xbed6640f	-0.41873214
18	0xbc2a8b48	-0.010409184
19	0x3f0b39a5	0.54384834
20	0x3d4424fa	0.047886826
21	0x3d04945a	0.03236804
22	0xbf5faa4e	-0.8736924
23	0xbbd63363	-0.0065368875
24	0xbdf3f84a	-0.11912592
25	0x3f3af3f4	0.7302849
26	0x3ccb518a	0.024819154
27	0xbdbcd63b	-0.09220549
28	0x3f037d10	0.51362705
29	0xbd09d417	-0.03364953
30	0x3edfcab1	0.4370933
31	0xbf764b78	-0.96208906
32	0x3f15744a	0.5838057
33	0xbdeb3cc7	-0.11486202
34	0x3ea9d9be	0.33173937
35	0x3a482aed	0.0007635791
36	0x3e9bdc63	0.3044158
37	0x3fa3c299	1.2793761
38	0x3b597fac	0.003318767
39	0xbb3da25b	-0.0028935883
40	0xbf0e463d	-0.55575925
41	0xbe7e3c6f	-0.24827741
42	0xbdfa5ab3	-0.12224331
43	0x3f12776d	0.5721348
44	0xbe2ffa1b	-0.17185251
45	0xbe41364c	-0.18868369
46	0xbd90ff87	-0.07079988
47	0xbe7c8fc0	-0.24664211
48	0xbc1eec46	-0.009699887
49	0x3dcfb94d	0.10142765
50	0x3ed6a5d6	0.41923398
51	0xbdccec81	-0.10006047
52	0x3ffd337b	1.9781336
53	0x3f1a6478	0.60309553
54	0x3e103c30	0.1408546
55	0x3e4fa276	0.20276818
56	0xbd553f94	-0.052062586
57	0x3db0881e	0.08619712
58	0x4008329c	2.128089
59	0xbe3a5695	-0.18197091
60	0xbddc02f0	-0.10742748
61	0xbe9b3856	-0.30316418
62	0xbe5d2005	-0.21594246
63	0x3e63d151	0.22247817
64	0xbebad0b3	-0.3648735
65	0x3f871ec6	1.0556266
66	0x3d176c24	0.036968365
67	0xbf1f74fc	-0.6228788
68	0xbe5669c6	-0.20938787
69	0xbe5721b5	-0.21008952
70	0x3e61aecd	0.22039337
71	0xbe261f8b	-0.1622297
72	0xbe9851bb	-0.29749855
73	0xbefc5e53	-0.49290714
74	0xbe8c474a	-0.2739814
75	0xbe2bfcde	-0.1679568
76	0x3fb936d2	1.4469855
77	0x3d333e60	0.043760657
78	0x3dc44705	0.095838584
79	0x3e4790d7	0.19488846
80	0x3dec50bf	0.115388386
81	0xbdaa9233	-0.083286665
82	0xbef00804	-0.46881115
83	0xbd9847a8	-0.07435542
84	0x3f25a2d0	0.6470156
85	0xbef69cb8	-0.48166442
86	0xbf0ded29	-0.5544
87	0x3eafcac5	0.34334388
88	0x3f28eca6	0.65986097
89	0x3c16d23f	0.0092054
90	0x3ccd7656	0.025080841
91	0xbf06cc23	-0.5265524
92	0x3e40e89b	0.18838732
93	0xbf60e332	-0.8784667
94	0x3bf5b902	0.0074988613
95	0x3f10a722	0.56505024
96	0x3d1bdad4	0.038050488
97	0x3f022502	0.5083772
98	0x3e03be54	0.12865573
99	0x3da6f453	0.0815207
100	0x3e5f522d	0.21808691
101	0xbe288c43	-0.16459756
102	0x3ebfa53b	0.37430748
103	0x40534e3f	3.3016508
104	0xbbfd4319	-0.007728946
105	0xbcb628f2	-0.022236321
106	0x3e82c1e0	0.2553854
107	0x3c420865	0.011842822
108	0xbd196969	-0.037454043
109	0xbe2e70fe	-0.1703529
110	0x3cacd93d	0.021099681
111	0x3ed48691	0.41508916
112	0x3fd9a615	1.7003809
113	0x3df6d39a	0.120520785
114	0x3ec49718	0.38396525
115	0x3e9df054	0.30847418
116	0x3da529b5	0.080645956
117	0x3dc8d2a7	0.09805804
118	0xbdca4a04	-0.098773986
119	0xbe3cf305	-0.1845208
120	0x3f7e527d	0.9934462
121	0x3f6a218a	0.91457427
122	0x3efbed89	0.49204662
123	0x3e0de4fe	0.13856885
124	0x3eca233b	0.39480004
125	0xbde20acc	-0.110372156
126	0x3dd74863	0.105118535
127	0xbf1a45f7	-0.6026301
128	0x3f01ce68	0.50705576
129	0x3e18c1dc	0.14917701
130	0xbebe798b	-0.37202105
131	0x3ef3ccee	0.47617286
132	0x3f20f6fc	0.6287687
133	0x3ee4a1f7	0.4465482
134	0x3f15fa55	0.585851
135	0xbea251c7	-0.31703016
136	0xbec91be1	-0.39279082
137	0x3f218c61	0.63104826
138	0xbee3030f	-0.4433827
139	0xbec1bab4	-0.37837756
140	0x3f69e5d0	0.9136629
141	0xbcee74b2	-0.029108379
142	0xbc8eb67a	-0.017420996
143	0x3dbaab31	0.091146834
144	0xbe3247e5	-0.17410238
145	0xbf751a77	-0.9574351
146	0xbef94746	-0.4868719
147	0x3eaff706	0.3436815
148	0x3edabcc5	0.42722145
149	0x3ef63647	0.48088285
150	0x3e025ed4	0.12731487
151	0x3e96ea20	0.29475498
152	0x3e54e5ca	0.20790783
153	0x3cb412be	0.021981593
154	0xbeef8d9b	-0.46787724
155	0x3e7aae1c	0.2448048
156	0xbee8ceeb	-0.45470366
157	0xbf79905e	-0.9748591
158	0x3ee19a51	0.44063047
159	0x3e95a232	0.29225308
160	0x3f0a4880	0.54016876
161	0x3db8fd19	0.090326495
162	0x3ec12917	0.37726662
163	0x3cff2edb	0.031150272
164	0x3ebb4f82	0.36584097
165	0x3d837130	0.06418073
166	0xbf8e93fc	-1.1138911
167	0x3f3c87bf	0.7364463
168	0x3e433bf3	0.19065838
169	0x3e911092	0.28332955
170	0x3e7fb10f	0.24969886
171	0x3d9b6d26	0.07589178
172	0xbd4ebf64	-0.050475493
173	0xbd39f519	-0.04539976
174	0x3f86477e	1.0490568
175	0xbf7b1064	-0.98071885
176	0xbd74c355	-0.059756596
177	0x3dffd722	0.12492205
178	0x3d170c43	0.036876928
179	0xbdcd27b8	-0.100173414
180	0xbded6cb1	-0.11592997
181	0x3d91ec91	0.071251996
182	0x3db6ec22	0.089317575
183	0xbf426ae5	-0.7594436
184	0xbdd4bca0	-0.1038754
185	0x3f1add32	0.6049377
186	0x3f4eb066	0.8073791
187	0xbf11aabb	-0.5690114
188	0xbec53b05	-0.3852159
189	0x3e003a68	0.1252228
190	0x3f871e4e	1.0556123
191	0x3e05bc8d	0.13060208
192	0x3f22aec6	0.63547933
193	0x3ef2ec01	0.47445682
194	0x3ed5a35d	0.417262
195	0x3cdc1aa1	0.026868166
196	0x3ef46b81	0.4773827
197	0x3e08fd62	0.13377908
198	0x3e906f22	0.28209788
199	0x3f438df5	0.76388484
200	0x3e50ecca	0.20402828
201	0x3d93113b	0.07181021
202	0xbf368d4d	-0.7130936
203	0x3ee9e147	0.45679685
204	0xbea76a8e	-0.32698482
205	0xbe83c5f1	-0.25736955
206	0xbec0e4a7	-0.37674448
207	0x3e3ddd8d	0.18541546
208	0x3f92b32b	1.1460928
209	0x3f0cb809	0.54968315
210	0xbe70f8f4	-0.23532468
211	0x3f860041	1.0468827
212	0x3e41afe1	0.18914749
213	0xbe1ebf46	-0.15502653
214	0x3e97bf9b	0.2963837
215	0xbe2616e1	-0.16219665
216	0xbe17f7c3	-0.14840607
217	0xbf94204b	-1.1572355
218	0xbc0134cf	-0.007886126
219	0x3e9c0e3b	0.30479607
220	0x3f2e80e9	0.6816545
221	0x3d41a89b	0.047279935
222	0x3e9a4187	0.30128118
223	0x3da0c544	0.078501254
224	0x3e3b3dc2	0.18285277
225	0xbcc0dd65	-0.02354307
226	0x3e30f083	0.17279248
227	0x3eada783	0.33916864
228	0xbe9a4f01	-0.301384
229	0x3f87a20e	1.059633
230	0xbed5c067	-0.41748354
231	0xbe115072	-0.14190844
232	0xbe0db1ff	-0.13837431
233	0x3f52a94a	0.82289565
234	0xbe91dd50	-0.2848916
235	0x3eda0d3e	0.42588228
236	0xbe45c185	-0.19312103
237	0xbf269228	-0.65066767
238	0x3f4a0530	0.78914165
239	0xbf1ced0b	-0.612992
240	0xbe4e3334	-0.2013672
241	0x3ef27b9a	0.47359926
242	0xbe7733ab	-0.24140804
243	0xbc835ce2	-0.0160355
244	0xbcef4d44	-0.029211648
245	0x3e0965bc	0.13417715
246	0x3d8b1f06	0.067930266
247	0xbe86e893	-0.26349315
248	0x405a26bf	3.4086149
249	0xbb4849b2	-0.0030561504
250	0xbc4fd33d	-0.0126846405
251	0xbe567b2f	-0.20945428
252	0xbdf41736	-0.1191849
253	0x3d836111	0.06414998
254	0x3e154c4f	0.1457989
255	0xbc1ef632	-0.009702252

body.0.b0.body.0.body.4.weight_g f4 [32, 1, 1, 1]
0	0x3f8a0c6c	1.0785041
1	0x3f821d2d	1.0165154
2	0x3f4ba7cc	0.7955291
3	0x3f813f2e	1.0097406
4	0x3f49275d	0.7857569
5	0x3f315256	0.6926626
6	0x3f4224a7	0.7583718
7	0x3f8eeed6	1.1166637
8	0x3f93b72f	1.1540278
9	0x3f803c2b	1.0018362
10	0x3f29239b	0.66069955
11	0x3f9fd43c	1.2486644
12	0x3f2eb228	0.68240595
13	0x3f65bde5	0.8974288
14	0x3f5c027e	0.859413
15	0x3f8b9322	1.0904276
16	0x3f7b1ca9	0.98090607
17	0x3f8198c8	1.012475
18	0x3f711ec3	0.94187564
19	0x3f16c4b2	0.58893883
20	0x3f42f83e	0.7616004
21	0x3f006cf0	0.50166225
22	0x3fa3bee7	1.2792634
23	0x3f35549c	0.7083223
24	0x3f6eae7e	0.93235004
25	0x3f5aeb6f	0.85515493
26	0x3f5c8b43	0.86149997
27	0x3fa13c65	1.2596556
28	0x3f73b23e	0.9519385
29	0x3f7e5105	0.99342376
30	0x3f895f62	1.0732234
31	0x3eae82fa	0.34084302

body.0.b0.body.0.body.4.weight_v f4 [32, 64, 1, 1]
0	0xbf3c4c60	-0.7355404
1	0xbefb62ce	-0.4909882
2	0x3f24d702	0.64390576
3	0xbec65c49	-0.38742283
4	0x3eb6fbef	0.35739085
5	0x3f1d6ab9	0.6149097
6	0x3ec44b23	0.38338575
7	0xbf093618	-0.53598166
8	0xbe12b95f	-0.14328526
9	0xbe6d2868	-0.23159945
10	0x3ee974f4	0.4559704
11	0x3f4340c8	0.76270723
12	0xbf357151	-0.7087603
13	0xbde5c672	-0.11219491
14	0x3d021d22	0.031766064
15	0xbf03be55	-0.514623
16	0xbf20265f	-0.6255855
17	0xbed064bf	-0.40701863
18	0xbd723f00	-0.059142113
19	0xbe0e92cc	-0.13923186
20	0x3eb20468	0.34768987
21	0x3f257a1a	0.6463944
22	0x3e37198a	0.17880836
23	0xbda916e8	-0.08256322
24	0xbd9fd81e	-0.07804893
25	0x3df9d3dd	0.12198613
26	0xbf4fa762	-0.8111478
27	0xbe40e37a	-0.18836775
28	0xbe840516	-0.2578513
29	0xbe6efd90	-0.23338914
30	0xbd67affa	-0.05656431
31	0x3f6d91eb	0.9280078
32	0xbf1763e2	-0.59136784
33	0x3f03b791	0.51451975
34	0x3e5e0f0b	0.21685426
35	0xbe94b428	-0.29043698
36	0xbee9d8a3	-0.45673093
37	0x3e1a67c1	0.15078641
38	0xbf5a0527	-0.8516411
39	0xbe819a8c	-0.25313222
40	0xbdeaf7e8	-0.114730656
41	0x3ea2f91a	0.31830674
42	0xbeac7582	-0.336834
43	0xbe80acd7	-0.25131866
44	0xbe9acff0	-0.3023677
45	0x3f22df8c	0.63622355
46	0x3d1847e6	0.037177943
47	0x3f00e9e6	0.503569
48	0xbf071e94	-0.52781034
49	0xbecc9381	-0.39956287
50	0x3e6a4b33	0.22880249
51	0x3e93104f	0.2872338
52	0x3e7d336f	0.24726652
53	0xbea7ff4f	-0.32811972
54	0x3f14f6c8	0.5818906
55	0x3edd939e	0.43276685
56	0xbeee10f2	-0.46497303
57	0xbef73cb0	-0.48288488
58	0xbdd4b9d2	-0.10387005
59	0xbf8dac62	-1.1068232
60	0xbeee91c1	-0.46595576
61	0x3e383f9a	0.17993012
62	0xbe168514	-0.14699203
63	0x3e2bc2d8	0.16773546
64	0x3ebf1886	0.37323397
65	0xbe385d84	-0.18004423
66	0xbea6636f	-0.32497737
67	0x3ed43b4e	0.41451496
68	0x3e3e7599	0.18599547
69	0xbeb77a47	-0.35835478
70	0xbe9e2512	-0.30887657
71	0xbe1b1c59	-0.15147533
72	0xbdb001b3	-0.08594074
73	0xbf8d9640	-1.1061478
74	0x3e1b26ee	0.15151569
75	0xbeabfeb0	-0.3359275
76	0x3f319ce3	0.69380015
77	0x3e99ad62	0.30015093
78	0x3f816523	1.010899
79	0xbdee3667	-0.1163147
80	0x3e2049e6	0.1565319
81	0x3f287bab	0.658137
82	0xbe92a0a6	-0.2863819
83	0xbec2969e	-0.38005537
84	0x3e2f74f8	0.17134464
85	0xbeeb1496	-0.45914143
86	0x3f06b045	0.52612716
87	0x3eec171d	0.46111384
88	0xbdda8108	-0.10669142
89	0x3eeb1f17	0.45922157
90	0xbde9f192	-0.11423029
91	0x3f009c10	0.5023813
92	0x3dc4da29	0.09611923
93	0x3e513e70	0.20433974
94	0xbeb2a7a6	-0.3489353
95	0xbf773d30	-0.9657774
96	0xbcb02d0b	-0.021505853
97	0xbd8b8a71	-0.06813515
98	0xbe02dcff	-0.12779616
99	0x3f14dade	0.58146465
100	0x3ed90481	0.4238625
101	0x3ede614d	0.4343361
102	0x3e4a09c8	0.19730294
103	0x3f2c3725	0.67271644
104	0x3eff8cd4	0.4991213
105	0x3eb80fe3	0.3594962
106	0xbc8b5477	-0.01700805
107	0x3ef72c5d	0.48276034
108	0xbe7e6e83	-0.24846844
109	0xbe6671b2	-0.22504309
110	0xbedfff69	-0.4374955
111	0xbf2314c0	-0.63703537
112	0xbeab91c4	-0.33509648
113	0xbd84c4eb	-0.064828716
114	0xbec26d54	-0.37974036
115	0x3e0261a1	0.12732555
116	0xbf42269e	-0.75840175
117	0x3eb75fbd	0.3581523
118	0xbedaae01	-0.4271088
119	0x3ec97b36	0.39351815
120	0x3e217a09	0.15769209
121	0x3f46e2e9	0.7768999
122	0xbea24c31	-0.31698754
123	0xbe1f8f11	-0.15581919
124	0xbf18aa6d	-0.5963505
125	0xbe9f3ddc	-0.31101882
126	0xbdb938d5	-0.09044043
127	0x3f8d0ad6	1.1018932
128	0xbe3644bc	-0.17799658
129	0x3e901fe6	0.28149337
130	0xbdc3726c	-0.095433086
131	0x3da3e01e	0.08001731
132	0xbe549b73	-0.20762424
133	0x3e8cb8e0	0.27484798
134	0x3f06cf09	0.5265966
135	0x3f3a381a	0.72741854
136	0x3d7b30fa	0.061326005
137	0xbe8bc4c9	-0.27298573
138	0x3f57bec0	0.84275436
139	0x3e1e9acf	0.15488742
140	0x3d4b5df6	0.049650155
141	0x3f744da1	0.9543095
142	0x3ebcdce3	0.36887273
143	0x3f06ede2	0.5270673
144	0xbef9ec60	-0.48813152
145	0x3e759c7d	0.23985477
146	0x3e42901e	0.19000289
147	0x3ec08919	0.37604597
148	0x3ec03663	0.37541494
149	0x3e107f0a	0.14110962
150	0xbea59c1d	-0.32345667
151	0x3dcdf51c	0.100565165
152	0xbefacbd6	-0.4898364
153	0xbf52a0d9	-0.82276684
154	0xbe8117a5	-0.25213352
155	0x3d996dd2	0.0749165
156	0x3df7775f	0.12083315
157	0xbf16fdf9	-0.5898128
158	0xbf68fbd0	-0.91009235
159	0xbd98dd52	-0.074640885
160	0x3dcde611	0.10053647
161	0xbf45705c	-0.7712457
162	0x3eb9612b	0.36206946
163	0xbf681ff2	-0.90673745
164	0x3e951721	0.29119208
165	0xbdfe1f8b	-0.1240836
166	0x3ed0a373	0.40749702
167	0x3ef2abf5	0.47396818
168	0x3e89dd93	0.2692686
169	0x3f0002f6	0.5000452
170	0x3ec5ad4f	0.38608786
171	0xbeb99dc7	-0.36253187
172	0x3ec9163d	0.3927478
173	0x3e96f3c0	0.29482841
174	0xbbffc249	-0.007805143
175	0xbe23ff1b	-0.16015284
176	0xbead41f0	-0.3383937
177	0x3ef06f3a	0.4695986
178	0x3ec9d296	0.39418477
179	0xbdfa20ff	-0.12213325
180	0xbdd01af4	-0.10161391
181	0xbeadfcfe	-0.3398208
182	0x3e29ceb7	0.16582762
183	0x3f28449c	0.6572969
184	0xbe6c90e8	-0.23102152
185	0x3e61f885	0.22067459
186	0x3edd7e6d	0.43260518
187	0xbf43cb0b	-0.76481694
188	0x3e2909d5	0.16507657
189	0xbf82667c	-1.0187526
190	0x3de8e588	0.113719046
191	0x3e48dc39	0.19615258
192	0x3f177163	0.5915739
193	0x3e89cb4c	0.26912916
194	0xbe80bcca	-0.25144035
195	0xbf4409cb	-0.7657744
196	0x3f1a74b0	0.603343
197	0x3f36d4bf	0.71418375
198	0x3f2c57f0	0.6732168
199	0x3e9b27fb	0.3030394
200	0xbf317d39	-0.693317
201	0x3d55b3fc	0.0521736
202	0xbed21444	-0.41031086
203	0x3ec99ba1	0.39376548
204	0xbec5db2b	-0.38643774
205	0xbf7bde5a	-0.98386157
206	0x3e7d137a	0.24714461
207	0x3f8ffe87	1.124955
208	0x3ef3d464	0.4762298
209	0xbf5f1e8d	-0.8715599
210	0xbe486e21	-0.19573261
211	0xbe24225a	-0.16028729
212	0x3e62d9f3	0.22153454
213	0x3e3e3407	0.18574534
214	0xbe739242	-0.23786262
215	0x3f22fede	0.63670146
216	0x3eb57cdf	0.35446832
217	0xbd047357	-0.03233656
218	0xbe36e393	-0.1786025
219	0xbf11ae54	-0.5690663
220	0x3ddd20f2	0.107972994
221	0x3ee819a3	0.4533206
222	0xbe465cde	-0.19371364
223	0xbdd35fe3	-0.10321023
224	0xbd599424	-0.053119794
225	0xbe1e768f	-0.15474914
226	0x3f35b169	0.7097383
227	0x3ee8c3b3	0.45461807
228	0x3def0831	0.11671484
229	0xbdc70d79	-0.097193666
230	0xbe0251aa	-0.12726465
231	0x3e80e961	0.25178054
232	0xbeba1565	-0.36344448
233	0x3e22b60c	0.15889758
234	0xbeaefb7e	-0.34176248
235	0xbd88b7bc	-0.066756696
236	0x3f1e1f72	0.6176673
237	0x3ecc39d5	0.39887872
238	0x3e60de06	0.21959695
239	0x3f143345	0.5789073
240	0x3f013000	0.5046387
241	0x3e5bc911	0.2146342
242	0x3e8498bb	0.25897774
243	0x3eff15f6	0.49821442
244	0xbcd2f1b1	-0.025750013
245	0xbf2ea67b	-0.6822278
246	0x3f308f9a	0.6896912
247	0x3e9dad42	0.30796248
248	0x3f08836e	0.53325546
249	0xbde5c7fe	-0.11219786
250	0x3e246e4e	0.16057703
251	0x3df7c8c2	0.120988384
252	0x3d53f129	0.05174366
253	0xbda54c22	-0.08071162
254	0xbe49886b	-0.19680946
255	0x3dddecac	0.10836157

body.0.b0.body.1.body.0.weight_g f4 [64, 1, 1, 1]
0	0x3f88f164	1.0698667
1	0x3fae4cb4	1.3617158
2	0x3f484061	0.78223234
3	0x3f54d4db	0.8313729
4	0x3f8161df	1.0107993
5	0x3f81d5c5	1.0143362
6	0x3f7b25ab	0.9810435
7	0x3f8a33cb	1.0797056
8	0x3f79af47	0.97533077
9	0x3f552d7c	0.8327253
10	0x3f79d9af	0.97597784
11	0x3f60532f	0.8762693
12	0x3f57deb9	0.8432422
13	0x3f2143be	0.6299399
14	0x3f906fd0	1.1284122
15	0x3f401699	0.7503448
16	0x3f953118	1.1655607
17	0x3f6f61de	0.9350871
18	0x3f7e20a2	0.99268544
19	0x3f62e35b	0.88628167
20	0x40357757	2.835409
21	0x3f61cf29	0.88206726
22	0x3f93e8b8	1.1555395
23	0x3f703ac2	0.9383966
24	0x3f1e301b	0.61792153
25	0x3f579d4e	0.842244
26	0x3fab29df	1.3372153
27	0x3f538ee2	0.82639897
28	0x3f3d0440	0.7383461
29	0x3f85dc50	1.0457859
30	0x3f5600f1	0.83595186
31	0x3f82f3ec	1.0230689
32	0x3f62e5c7	0.8863186
33	0x3f8283bc	1.0196452
34	0x3f994659	1.1974593
35	0x3f86d91b	1.0535005
36	0x3f67476f	0.90343374
37	0x3f8e6fb8	1.1127844
38	0x3f913816	1.1345241
39	0x3f7bcfea	0.98364127
40	0x3f8eafdb	1.1147417
41	0x3f973156	1.1811931
42	0x403e9b19	2.9782164
43	0x3f5be250	0.858922
44	0x3fa5c814	1.2951684
45	0x3f82820a	1.0195935
46	0x3f65b8ea	0.8973528
47	0x3f8e3f92	1.111315
48	0x3fa487c9	1.2853938
49	0x3f9082ed	1.1289955
50	0x3f882aee	1.0638101
51	0x3f8e26f4	1.1105638
52	0x3f8c828a	1.0977337
53	0x3f8a12bf	1.0786971
54	0x3f8fa042	1.1220782
55	0x3f71da5c	0.94473815
56	0x3f45f29c	0.7732332
57	0x3f67ec11	0.90594584
58	0x3f882b1c	1.0638156
59	0x3f8ed16a	1.1157658
60	0x3f94ff32	1.164038
61	0x3f7bda75	0.98380214
62	0x3f3dda94	0.7416165
63	0x3f853498	1.0406675

body.0.b0.body.1.body.0.weight_v f4 [64, 32, 1, 1]
0	0xbdc7834e	-0.09741841
1	0x3ebb4361	0.36574844
2	0x3e45c41e	0.19313094
3	0x3dcc047c	0.09961793
4	0x3ed672c9	0.4188445
5	0xbf246dd1	-0.64230067
6	0x3f83d25c	1.0298572
7	0x3f0c7f21	0.54881483
8	0x3da6abc3	0.0813823
9	0xbda80d5b	-0.08205672
10	0x3f2c7751	0.6736956
11	0x3e78d0db	0.24298422
12	0xbf90fd36	-1.1327274
13	0xbe45088d	-0.19241543
14	0x3ed748ed	0.42047825
15	0xbea6e608	-0.32597375
16	0x3ed81d02	0.4220963
17	0x3ece4f44	0.4029485
18	0x3ee5eb09	0.4490588
19	0x3eb3c12c	0.35108316
20	0xbea82b8f	-0.32845733
21	0x3d86dd3c	0.06585166
22	0xbeb63704	-0.3558885
23	0x3f138c48	0.5763593
24	0xbee93bd6	-0.45553464
25	0x3f156796	0.58361185
26	0x3effea65	0.49983516
27	0x3dfc98f5	0.12333862
28	0xbec511fa	-0.38490278
29	0x3f1a5b73	0.6029579
30	0x3f24f822	0.6444112
31	0x3ec19d63	0.3781539
32	0xbec10ff3	-0.3770748
33	0x3f203406	0.6257938
34	0x3e0996ec	0.13436478
35	0xbe6b5e85	-0.22985275
36	0x3f8f50dc	1.1196551
37	0x3d5cea24	0.05393423
38	0xbe447ee4	-0.1918903
39	0x3ee05e9a	0.43822175
40	0x3ed54121	0.41651252
41	0xbe3bcb58	-0.18339288
42	0xbe952904	-0.29132855
43	0x3c92ecd1	0.017935188
44	0xbec14d88	-0.37754464
45	0x3e904edd	0.28185168
46	0x3f846390	1.0342884
47	0xbe98b295	-0.29823747
48	0x3f53cf89	0.8273855
49	0xbe3afeeb	-0.18261306
50	0x3e6b8851	0.2300122
51	0x3ebb1d57	0.36545822
52	0xbf4ecb99	-0.80779415
53	0x3ef7c8d3	0.48395404
54	0xbc26bd21	-0.010176928
55	0x3ee98d62	0.4561568
56	0x3d0b8d20	0.034070134
57	0xbed21421	-0.41030982
58	0xbb8ff58a	-0.004393284
59	0xbf43557c	-0.76302314
60	0x3f0a3aff	0.5399627
61	0x3ec3d856	0.3825099
62	0xbe41ea6d	-0.18937083
63	0xbe05fa0d	-0.13083668
64	0x3e868bf1	0.26278642
65	0xbf271702	-0.6526948
66	0x3e2dda5c	0.16977829
67	0xbe2f6889	-0.17129721
68	0xbe907fb7	-0.2822244
69	0xbe8db56f	-0.27677485
70	0x3e391a24	0.18076378
71	0xbf1631dc	-0.5866983
72	0xbeee433d	-0.46535674
73	0xbd71acc2	-0.059002645
74	0x3f1549ee	0.5831593
75	0xbf3ebac4	-0.7450373
76	0xbe46f704	-0.19430166
77	0xbf92ee96	-1.1479061
78	0x3ea5f3f0	0.32412672
79	0xbe14c9b4	-0.14530069
80	0xbeecb74b	-0.4623359
81	0xbf320fa3	-0.6955511
82	0x3da133de	0.07871221
83	0xbed0d2df	-0.40785882
84	0x3e2a4dff	0.16631316
85	0xbe576f4f	-0.21038555
86	0x3e79c68f	0.2439215
87	0xbede1d3b	-0.43381676
88	0x3f1192e4	0.5686476
89	0xbf010c43	-0.50409335
90	0xbf278836	-0.65442216
91	0x3e3fb96e	0.1872308
92	0xbf562723	-0.8365347
93	0xbee7e67d	-0.45293036
94	0x3eab2c5d	0.33432284
95	0xbb90b3ee	-0.0044159805
96	0x3f229796	0.6351255
97	0xbdfd7c1e	-0.12377189
98	0x3e18d44c	0.14924735
99	0x3deca0d0	0.1155411
100	0x3d0ece92	0.03486497
101	0xbe507ae9	-0.20359387
102	0xbde70a02	-0.11281206
103	0xbebb9381	-0.36635974
104	0x3e5c1f9f	0.21496437
105	0xbea4adaa	-0.32163745
106	0x3d11cb2e	0.035594158
107	0xbe9559a8	-0.29169965
108	0x3e4f8c30	0.20268321
109	0xbf6f9e50	-0.9360094
110	0x3eb4d910	0.35321856
111	0x3ec1ccf7	0.37851688
112	0xbf40e408	-0.7534795
113	0xbeb5c46f	-0.3550143
114	0x3db700bd	0.08935688
115	0x3ee968b1	0.45587686
116	0xbe13425b	-0.14380781
117	0xbf3cdc76	-0.73773897
118	0xbf7af7c1	-0.9803429
119	0xbe06acf0	-0.13151908
120	0x3e92b160	0.2865095
121	0xbf0d6fdf	-0.55248827
122	0x3f018043	0.50586337
123	0xbf015b5c	-0.5053003
124	0x3f1dda68	0.61661386
125	0xbe2bf8ac	-0.1679408
126	0xbcd5ddfb	-0.026106825
127	0xbf2c8f64	-0.67406297
128	0x3ec7cb64	0.39022362
129	0xbeb9f212	-0.36317497
130	0x3ee9f9b6	0.45698327
131	0x3f36eeef	0.71458334
132	0xbe0dbb72	-0.13841036
133	0x3d2f7727	0.042838242
134	0xbe48cfeb	-0.19610564
135	0x3f023aab	0.5087077
136	0x3de0bb84	0.10973266
137	0x3f026f99	0.50951535
138	0x3e98409e	0.297368
139	0x3e46fdcd	0.19432755
140	0xbecaf737	-0.39641735
141	0x3e865eb9	0.26244143
142	0x3e7f4bfd	0.24931331
143	0x3f117f31	0.56834704
144	0xbf1e9b4f	-0.6195573
145	0xbe8fadc0	-0.28062248
146	0x3d15c003	0.03656007
147	0xbe11c1ad	-0.14234038
148	0x3e4e495d	0.20145173
149	0xbf133f95	-0.57518893
150	0xbe159d9b	-0.14610903
151	0xbf9485c6	-1.1603324
152	0x3decae8d	0.115567304
153	0xbe18ebed	-0.14933749
154	0xbf0a577a	-0.5403973
155	0x3ebaadfb	0.36460862
156	0x3d17bcef	0.037045415
157	0xbf45d1f0	-0.77273464
158	0xbf143a54	-0.579015
159	0xbe9079b7	-0.2821786
160	0xbf0bc811	-0.5460215
161	0xbe761eb8	-0.24035156
162	0xbd82b579	-0.063822694
163	0xbeab90c2	-0.3350888
164	0x3f5fcc2c	0.87420917
165	0x3f0e75e6	0.5564865
166	0x3bbb2700	0.0057114363
167	0xbf3399a7	-0.7015633
168	0xbf80663d	-1.0031201
169	0x3f37ff55	0.7187398
170	0x3f179cf1	0.5922385
171	0xbe1d5323	-0.15363745
172	0x3d4ff87e	0.05077409
173	0x3f00b3de	0.50274456
174	0xbec94570	-0.3931079
175	0x3ed4a0c6	0.4152891
176	0xbef7943b	-0.48355278
177	0x3f0e883b	0.5567662
178	0x3e65a2f8	0.22425449
179	0x3f306295	0.68900424
180	0x3bbd9b30	0.005786322
181	0x3e564efe	0.2092857
182	0xbf20c54f	-0.6280107
183	0x3ecc2d16	0.39878148
184	0x3e4fbc03	0.20286565
185	0x3ddba8b9	0.10725541
186	0xbeaf18aa	-0.34198505
187	0x3d7a2ab3	0.061075877
188	0x3e0eefe2	0.13958696
189	0xbeb4e3e1	-0.35330108
190	0xbecde8bb	-0.40216622
191	0xbf11ef4f	-0.5700578
192	0xbde8376a	-0.113386944
193	0xbea1368c	-0.31486928
194	0x3f038a3d	0.5138281
195	0x3f193cca	0.5985838
196	0xbfaead34	-1.3646607
197	0x3eba8607	0.3643038
198	0xbef640df	-0.48096368
199	0xbec74025	-0.38916126
200	0x3d1eac95	0.038738806
201	0xbd2727cb	-0.040809434
202	0x3f0cd238	0.5500827
203	0xbd0429e1	-0.0322665
204	0x3b39ae1c	0.0028332537
205	0x3ec921a7	0.39283487
206	0xbf0c95f9	-0.5491634
207	0x3e1d13ed	0.15339632
208	0x3e3f9c94	0.18712074
209	0xbf58ba6b	-0.8465945
210	0x3ec55996	0.3854491
211	0x3eb79b14	0.35860503
212	0x3f657d9b	0.89644784
213	0x3e98189e	0.2970628
214	0x3dd1d518	0.102457225
215	0xbc6f399b	-0.014601137
216	0x3f1235c7	0.5711331
217	0xbd3aee8a	-0.045637645
218	0x3e324a41	0.17411138
219	0x3ea40676	0.3203618
220	0xbf52b26f	-0.8230352
221	0x3f0aa88d	0.5416344
222	0xbf44da84	-0.7689593
223	0xbee1c6b3	-0.44096908
224	0xbee98c82	-0.4561501
225	0x3f32a6c6	0.69785726
226	0xbed3a3ae	-0.41335815
227	0xbf1237f4	-0.5711663
228	0x3cd43895	0.025905887
229	0xbe72f1a9	-0.23724999
230	0x3f4ff724	0.8123648
231	0x3ebf4652	0.37358338
232	0xbe3519d3	-0.17685632
233	0xbf48572c	-0.78258014
234	0x3fa25ae0	1.2683983
235	0x3e8a3886	0.2699625
236	0xbeddaa06	-0.4329378
237	0x3e7ab477	0.24482904
238	0x3e518c69	0.20463718
239	0xbe3ef58e	-0.18648359
240	0x3f151424	0.5823386
241	0x3c27c388	0.010239489
242	0x3e4a53c2	0.19758514
243	0x3f0617bd	0.5237997
244	0xbef87894	-0.48529494
245	0xbee8f15b	-0.4549664
246	0x3e481901	0.19540788
247	0x3e64a625	0.22329004
248	0x3e3f8ee3	0.1870685
249	0x3f094522	0.53621113
250	0x3da73d18	0.081659496
251	0xbe712f64	-0.23553234
252	0xbe122026	-0.14270076
253	0x3f2080e4	0.6269667
254	0x3ee2e4bb	0.44315132
255	0xbe16dae9	-0.14731945

body.0.b0.body.1.body.2.weight_g f4 [64, 1, 1, 1]
0	0x3f870f59	1.0551559
1	0x3f8fc688	1.1232462
2	0x3f3730c8	0.7155881
3	0x3f4528e8	0.77015543
4	0x3f847172	1.0347121
5	0x3f80da5e	1.006664
6	0x3f94c658	1.162303
7	0x3f8dd477	1.1080464
8	0x3f801b3c	1.0008311
9	0x3f54198a	0.8285147
10	0x3f7af01e	0.9802264
11	0x3f6921b4	0.9106705
12	0x3f4c6f2a	0.7985712
13	0x3f3348eb	0.7003314
14	0x3f8f161b	1.1178621
15	0x3f5ef3f8	0.87091017
16	0x3faacb30	1.3343258
17	0x3f52cf43	0.82347506
18	0x3f787c5a	0.97064745
19	0x3f5b94f9	0.8577419
20	0x402d03c8	2.7033558
21	0x3f439b04	0.7640841
22	0x3f94dc76	1.1629779
23	0x3f7e2e83	0.9928972
24	0x3f2c7516	0.6736616
25	0x3f631712	0.8870708
26	0x3f956b37	1.1673344
27	0x3f5f7f87	0.87303966
28	0x3f3760d9	0.7163215
29	0x3f8c4136	1.0957401
30	0x3f66b151	0.90114313
31	0x3f6ee67d	0.9332045
32	0x3f4c635b	0.79839104
33	0x3f841195	1.0317866
34	0x3f814c8c	1.0101485
35	0x3f8ba274	1.0908952
36	0x3f6a90fc	0.9162748
37	0x3f8464bd	1.0343243
38	0x3f9446f3	1.1584152
39	0x3f8de0aa	1.1084187
40	0x3f8d9724	1.106175
41	0x3f943db7	1.1581334
42	0x403bbcb6	2.933393
43	0x3f5a940a	0.8538214
44	0x3fae4d16	1.3617275
45	0x3f886ae6	1.0657623
46	0x3f5946ef	0.8487386
47	0x3f85f564	1.0465512
48	0x3fa7d0d9	1.311061
49	0x3f8a0e2b	1.0785574
50	0x3f960a1c	1.1721835
51	0x3f878793	1.0588249
52	0x3fa5379d	1.2907597
53	0x3f5acb57	0.8546652
54	0x3f996c26	1.1986129
55	0x3f630970	0.88686275
56	0x3f40ba1c	0.7528398
57	0x3f86cf84	1.0532079
58	0x3f6daf14	0.92845273
59	0x3f934781	1.1506196
60	0x3f8c2a63	1.0950435
61	0x3f82e162	1.0225031
62	0x3f394c84	0.7238238
63	0x3f891cfb	1.0711969

body.0.b0.body.1.body.2.weight_v f4 [64, 1, 3, 3]
0	0xbbc6c26a	-0.0060656564
1	0x3ffae45c	1.960094
2	0xbd56fd22	-0.0524875
3	0x3e6411fd	0.22272487
4	0xbf47dd96	-0.7807249
5	0x3e54ccce	0.20781252
6	0x3e324fe6	0.17413291
7	0xbe484ef3	-0.19561367
8	0x3e0c5b7e	0.13706776
9	0x3e4bdf74	0.1990946
10	0x3e060d9f	0.13091134
11	0xbf508f7b	-0.81468934
12	0x3eaa068c	0.3320812
13	0xbf3bad51	-0.73311335
14	0xbf3a26be	-0.72715366
15	0x3e19c28d	0.15015621
16	0x3e9ff2a1	0.312398
17	0xbf08a103	-0.53370684
18	0xbe3cadf2	-0.1842573
19	0x3e468a9e	0.19388816
20	0xbe07e9a7	-0.13272725
21	0xbe8246be	-0.25444597
22	0xbf0f92c7	-0.5608334
23	0xbdc5a1ea	-0.09650023
24	0x3e64d72c	0.22347707
25	0x3fef4555	1.8693033
26	0x3eb6e3e5	0.35720745
27	0xbe2c1289	-0.16803946
28	0xbf9e05fd	-1.2345577
29	0xbe26a9eb	-0.16275756
30	0x3de58a94	0.11208072
31	0x3f4514aa	0.76984656
32	0x3e1a9390	0.15095353
33	0x3b105873	0.0022025376
34	0x3eb2efd6	0.34948605
35	0xbc0bc971	-0.008531914
36	0xbf3b64fc	-0.73200965
37	0x3f53386e	0.8250798
38	0xbe6289fd	-0.22122951
39	0x3c1df2b6	0.009640386
40	0x3eecf231	0.46278527
41	0xbf00552c	-0.5012996
42	0xbd281dd0	-0.041044056
43	0xbd50e177	-0.05099627
44	0x3e45b822	0.19308522
45	0xbe8378da	-0.2567814
46	0x3dfcf453	0.12351289
47	0x3dbaf4f5	0.09128753
48	0xbf575a41	-0.8412209
49	0x3f8e881e	1.113529
50	0xbe1636e9	-0.14669384
51	0xbe84b0f5	-0.25916258
52	0x3e2c3987	0.1681882
53	0xbcfe1130	-0.031014055
54	0x3e404b82	0.18778804
55	0xbf0b10ca	-0.54322493
56	0xbd963585	-0.07334427
57	0xbf11fcb6	-0.5702623
58	0xbeea6680	-0.45781326
59	0x3f3419b6	0.7035173
60	0xbe53d38b	-0.20686166
61	0x3f0512ab	0.5198161
62	0x3ebd1e92	0.36937386
63	0x3d94d9ed	0.072681285
64	0x40498253	3.1485794
65	0x3d6be22a	0.057588734
66	0x3d44170f	0.047873553
67	0xbe77eb37	-0.24210821
68	0xbd01f298	-0.031725496
69	0x3cca6039	0.024704086
70	0xbc5a5243	-0.013325277
71	0xbdc0192e	-0.09379803
72	0x3f2569df	0.6461467
73	0xbeca7b78	-0.39547324
74	0xbe725b7c	-0.23667711
75	0x3f4edd1b	0.8080613
76	0x3e4ad27e	0.19806859
77	0xbcc77a27	-0.024350239
78	0x3f160818	0.586061
79	0x3f20c031	0.6279326
80	0x3d77acf3	0.06046767
81	0x3d83b513	0.064310215
82	0xbe1168d6	-0.14200148
83	0xbea48fc2	-0.32140929
84	0xbe11cf61	-0.14239265
85	0xbefa61ed	-0.48902836
86	0x3f4a2322	0.7895986
87	0xbd0ea87c	-0.034828648
88	0x3e4c7028	0.19964659
89	0x3f54a8f3	0.83070296
90	0xbda96949	-0.08272035
91	0x3dcc8ab2	0.099873915
92	0xbba77556	-0.005110423
93	0xbf603ef5	-0.87596065
94	0x3f86abde	1.05212
95	0x3cbab95f	0.02279347
96	0xbebcaf74	-0.3685261
97	0x3e29c06a	0.16577306
98	0x3d72e9a9	0.059304867
99	0xbd7a195d	-0.061059345
100	0x3e5b30d5	0.21405347
101	0x3e4e562c	0.2015006
102	0xbe3d4f8a	-0.18487373
103	0xbf56fba0	-0.839777
104	0x3f9bd9d4	1.2175851
105	0xbd892ed4	-0.06698385
106	0xbccb8e81	-0.024848225
107	0x3d943f4c	0.072386354
108	0x3eb757ec	0.35809267
109	0xbe8d6e20	-0.2762308
110	0xbe9e3488	-0.30899453
111	0x3f835232	1.0259459
112	0xbe08927c	-0.1333713
113	0xbeec6285	-0.46168914
114	0x3f11267d	0.56699353
115	0xbe407c13	-0.1879733
116	0xbed0cea9	-0.4078267
117	0xbe45bc82	-0.19310191
118	0x3f46396f	0.77431387
119	0x3f0303a5	0.51177436
120	0xbecfbbad	-0.40572873
121	0x3f1be8f7	0.6090235
122	0x3f307a94	0.6893704
123	0xbd646080	-0.055756092
124	0x3d018618	0.031622022
125	0xbed717d7	-0.42010376
126	0x3dd046ad	0.1016973
127	0x3d95657e	0.07294749
128	0xbd7c39c3	-0.061578523
129	0x3ee997f3	0.4562374
130	0xbf94a2a2	-1.1612132
131	0x3e25f7ca	0.16207805
132	0x3eaf13d1	0.34194806
133	0x3f0c3c22	0.54779255
134	0x3e355d1e	0.17711303
135	0x3f0621cb	0.52395314
136	0x3e19da30	0.15024638
137	0xbec505ad	-0.38480893
138	0x3eec9e42	0.4621449
139	0x3e521bd0	0.20518422
140	0xbf3dc948	-0.74135256
141	0x3f07c014	0.5302746
142	0xbd9e426e	-0.07727514
143	0xbf0543e7	-0.52056736
144	0xbf0278bf	-0.50965494
145	0x3f21306d	0.62964517
146	0xbf0f6bd9	-0.5602394
147	0xbe077e3b	-0.13231747
148	0x3e216d3e	0.15764329
149	0xbe3fe39c	-0.1873917
150	0xbec859c5	-0.3913099
151	0x3f11b67e	0.56919086
152	0xbf077dd5	-0.5292638
153	0x3ddd5a3a	0.10808225
154	0xbe420368	-0.18946612
155	0xbdb2c1dd	-0.08728383
156	0x3eb15bc5	0.34640327
157	0x3e6100c9	0.21972956
158	0x3e108530	0.14113307
159	0x3f1e958d	0.61946946
160	0x3f9c721d	1.2222325
161	0x3ec32ccd	0.38120118
162	0xbd0915be	-0.033468
163	0xbe228ed9	-0.15874805
164	0x3d57c659	0.052679393
165	0xbdd29559	-0.10282392
166	0x404c812f	3.1953847
167	0x3d3e44ef	0.04645246
168	0xbda6b2e8	-0.081395924
169	0x3e23785f	0.15963887
170	0x3de7225c	0.112858504
171	0x3ec102d8	0.37697482
172	0x3db4a0d6	0.088197395
173	0x3c663d2b	0.0140526695
174	0x3ff632be	1.9234235
175	0xbf121895	-0.5706876
176	0xbe97ad51	-0.29624417
177	0xbce3cdb4	-0.027808048
178	0x3e211491	0.15730502
179	0x3db580d7	0.08862465
180	0xbe38fc4b	-0.18064992
181	0x3eaf2d77	0.34214374
182	0x3de5e0ab	0.11224493
183	0xbe349715	-0.17635758
184	0x4025492e	2.5825915
185	0x3db752e4	0.08951357
186	0xbd8f1ce4	-0.06987932
187	0xbe6ed0a4	-0.23321778
188	0xbd1787e8	-0.036994845
189	0xbdefe91a	-0.117143825
190	0x3eed6f80	0.4637413
191	0x3e9e15f9	0.3087614
192	0xbef14325	-0.4712154
193	0x3ed8edfb	0.42369065
194	0x3f288086	0.6582111
195	0xbef0c9ce	-0.47028965
196	0xbf0ec20f	-0.5576486
197	0xbdcc53af	-0.09976899
198	0xbd2601aa	-0.04052893
199	0xbcad931d	-0.021188313
200	0x3e79b9d9	0.24387302
201	0xbd1f9bc3	-0.038966905
202	0x3e64347c	0.22285646
203	0x40205b2b	2.5055645
204	0xbb5e1a0d	-0.003389004
205	0xbe1fd401	-0.15608217
206	0xbf1a03eb	-0.6016223
207	0xbd27015f	-0.040772792
208	0xbee51a1c	-0.44746482
209	0x3da89ab9	0.08232636
210	0xbf723da7	-0.94625324
211	0x3f416e39	0.7555881
212	0x3e8c849c	0.27444923
213	0xbe1158a1	-0.14193965
214	0x3eeb39e4	0.45942605
215	0xbe034409	-0.12818922
216	0x3e0de7e1	0.13857986
217	0x3f7639dd	0.9618204
218	0x3e1ec35a	0.15504208
219	0x3f84f8c1	1.0388414
220	0x3e132cb2	0.14372519
221	0x3f14b2ae	0.58085144
222	0x3e4bf400	0.19917297
223	0x3f24dfbb	0.64403886
224	0xbe77c020	-0.24194384
225	0x3e966d70	0.2938037
226	0x3efb8891	0.4912763
227	0x3d7a59f5	0.061120946
228	0x3f28602f	0.65771765
229	0x3f79ac0f	0.97528166
230	0x3f1afb77	0.60539955
231	0xbf06f48d	-0.52716905
232	0xbe9c2d95	-0.30503526
233	0xbe923a03	-0.28559884
234	0x3f268028	0.650393
235	0xbceafd70	-0.028685302
236	0x3f22f46d	0.63654214
237	0x3f319792	0.693719
238	0x3e3f05fa	0.18654624
239	0x3eb15a58	0.3463924
240	0x3f225065	0.6340392
241	0x3e8daa9e	0.27669233
242	0xbe43f2aa	-0.19135538
243	0x3e28e49b	0.16493456
244	0x3f665486	0.8997272
245	0x3db7cc2e	0.08974491
246	0xbd504478	-0.050846547
247	0xbeddbaa0	-0.43306446
248	0x3d0363ae	0.032077484
249	0x3bccdb89	0.0062517566
250	0xbf645186	-0.89186895
251	0xbd1f6b97	-0.038920965
252	0x3cbd2580	0.02308917
253	0xbe977f46	-0.2958929
254	0xbe8ccd98	-0.27500606
255	0xbd5f76b6	-0.05455657

body.0.b0.body.1.body.4.weight_g f4 [32, 1, 1, 1]
0	0x3f559f2d	0.8344601
1	0x3f5bf301	0.8591767
2	0x3f6595ad	0.8968151
3	0x3f40b641	0.752781
4	0x3f32b0a8	0.69800806
5	0x3f71bade	0.9442576
6	0x3f5450e5	0.82935935
7	0x3f884655	1.0646464
8	0x3f804bf4	1.0023179
9	0x3f38aa86	0.721352
10	0x3f56fe07	0.83981365
11	0x3f895a2e	1.0730646
12	0x3f7f562d	0.9974087
13	0x3f7b1555	0.98079425
14	0x3f88d163	1.06889
15	0x3f9eee34	1.2416444
16	0x3f6210d7	0.88306946
17	0x3f47f882	0.7811357
18	0x3f3f55fb	0.7474057
19	0x3f0c3897	0.5477385
20	0x3f60dc34	0.87836003
21	0x3f4e301a	0.8054215
22	0x3f7561f6	0.958526
23	0x3f85beae	1.0448816
24	0x3f7a0cd6	0.97675836
25	0x3f3f0fe4	0.7463362
26	0x3f88fa69	1.0701419
27	0x3f3f56b9	0.74741703
28	0x3f96458f	1.1739978
29	0x3f8ee43e	1.1163404
30	0x3f69e8e2	0.91370976
31	0x3f0173fd	0.5056761
